cpu_data.pth (torch, 87951 bytes, 8 tensors)

l1.weight f4 [128, 79]
0	0xbd8b28d7	-0.06794899
1	0xba79da15	-0.0009531093
2	0xbd7b3650	-0.061331093
3	0x3a67cbf1	0.00088423403
4	0x3d258f76	0.040420018
5	0x3d86bb1f	0.06578659
6	0x3c92b9c6	0.01791085
7	0x3e17b4cc	0.14815062
8	0x3dce44aa	0.100716904
9	0x3defb25e	0.11703943
10	0xbe42aa60	-0.19010305
11	0x3ddc6a75	0.107624926
12	0x3e1ecef4	0.15508634
13	0x3df7949b	0.12088891
14	0x3da4826f	0.08032691
15	0x3d66f3ff	0.056385037
16	0x3cca0ddc	0.024664812
17	0x3d47ffe1	0.04882801
18	0x3d10b85f	0.03533208
19	0x3d0d85ed	0.03455155
20	0x3e74f840	0.23922825
21	0x3dcf2516	0.101144955
22	0xbc97f05c	-0.01854723
23	0xbb8c9bbd	-0.0042910264
24	0xbcc1d426	-0.02366073
25	0x3e195fc0	0.14977932
26	0xbe24ea07	-0.161049
27	0xbcc75dca	-0.024336714
28	0xbafd5124	-0.001932655
29	0xbc71bd68	-0.014754631
30	0x3d0bfee2	0.034178622
31	0x3e17761f	0.14791153
32	0x3d139589	0.03603128
33	0xbd010d0c	-0.031506583
34	0xbc2f4168	-0.010696746
35	0x3e1b8e01	0.15190889
36	0x3d49a59c	0.049230203
37	0x3cb00837	0.021488292
38	0xbcdc653b	-0.02690374
39	0x3e58f64f	0.2118771
40	0x3df2fb3f	0.11864328
41	0xbe3068cb	-0.17227475
42	0x3d4a32d1	0.04936487
43	0xbcdd7046	-0.027031075
44	0x3d884f6c	0.066557735
45	0x3e21be7d	0.15795322
46	0xbd916d21	-0.07100893
47	0x3d834693	0.06409945
48	0x3ccd8ad1	0.025090607
49	0x3d01800e	0.031616263
50	0x3ddf6e8d	0.10909758
51	0x3e2ef223	0.17084555
52	0xbd2b8ab8	-0.04188034
53	0xbaede429	-0.0018149662
54	0x3ce6063f	0.02807915
55	0x3e242c56	0.16032538
56	0x3e4b3182	0.19843104
57	0xbcc0f4ff	-0.023554323
58	0xbddfa3b4	-0.10919896
59	0xbddc99c5	-0.10771517
60	0x3e0c920d	0.13727589
61	0x3e14ad6d	0.14519282
62	0xbd45010c	-0.0480967
63	0x3c9fb0f7	0.019493563
64	0xbd04b25f	-0.03239667
65	0x3e1d4d66	0.15361556
66	0xbe0bd2a0	-0.13654566
67	0x3b92b9df	0.004477724
68	0x3e24c81e	0.16091964
69	0x3e0cf402	0.13764957
70	0x3df2d22b	0.118564926
71	0x3e5fc40f	0.21852134
72	0x3be6c60a	0.007042651
73	0x3d33989a	0.043846704
74	0x3c5a6e12	0.013331907
75	0x3dba0fc0	0.09085035
76	0x3d184b8f	0.037181433
77	0x3dc20288	0.09473139
78	0x3c04948e	0.008092059
79	0x3dc4ecb9	0.09615464
80	0x3e2d7ddc	0.16942543
81	0xbd25999f	-0.040429708
82	0x3e278fb3	0.1636341
83	0x3c004b0f	0.007830395
84	0xb99dbfe1	-0.00030088334
85	0x3daef9ad	0.085437156
86	0x3daf4547	0.085581355
87	0xbe03d817	-0.128754
88	0xbd19788c	-0.037468478
89	0xbd9544b2	-0.07288493
90	0x3e161376	0.14655861
91	0x3cfe72fe	0.031060692
92	0x3e319a23	0.17343955
93	0x3dddde2e	0.10833393
94	0xbe1aea99	-0.15128554
95	0x3ddacdaf	0.10683762
96	0xbd80b1e1	-0.06283928
97	0x39b3bbd8	0.00034281495
98	0x3cb8ab27	0.02254255
99	0x3c1dcebd	0.00963181
100	0xbcc6bc42	-0.02425969
101	0xbcc7b0a3	-0.02437622
102	0x3cae41e3	0.021271652
103	0x3d8edc6f	0.06975638
104	0x3c9d6549	0.019213336
105	0xbd47af5a	-0.048751213
106	0xbe1343f3	-0.1438139
107	0xbd5a3b78	-0.05327937
108	0x3d6db7f0	0.058036745
109	0x3df258bf	0.11833333
110	0xbd3c3148	-0.045945436
111	0x3e4163d0	0.18885732
112	0x3e3a2a09	0.18180098
113	0xbcd2d052	-0.0257341
114	0x3c295a2a	0.010336438
115	0xbc10a970	-0.00882946
116	0xbc2f1bb4	-0.010687757
117	0xbda6af19	-0.08138866
118	0x3e348caa	0.17631784
119	0x3cd20b33	0.025640106
120	0xbcb3abbc	-0.021932475
121	0x3cfefbe6	0.031125974
122	0x3d82ad7b	0.06380745
123	0x3e066e52	0.13128021
124	0xbd3bdcd8	-0.04586491
125	0xbc58da18	-0.013235591
126	0xbdea31f9	-0.11435313
127	0x3d30856b	0.043095987
128	0x3e122694	0.14272529
129	0xbe47195c	-0.19443268
130	0xbdfc0b02	-0.12306787
131	0x3d12ac1f	0.03580868
132	0xbe180eac	-0.14849347
133	0x3db8cfd3	0.09024014
134	0xbd90d2cb	-0.070714556
135	0xbe452890	-0.19253755
136	0xbdb1c64d	-0.08680401
137	0xbe08b18e	-0.13348982
138	0xbcb5ddaa	-0.022200424
139	0xbdb9c7b0	-0.090712905
140	0x3e430807	0.19046031
141	0x3df8bd33	0.12145462
142	0x3e5f885e	0.21829364
143	0x3de70a60	0.11281276
144	0xbe0c118e	-0.13678572
145	0xbda05dcd	-0.07830391
146	0xbd6401c9	-0.055665765
147	0xbc5fd63d	-0.013661918
148	0xbe4da8af	-0.20083879
149	0xbdf24c77	-0.11830991
150	0xbdf27954	-0.11839548
151	0xbd467ee8	-0.04846087
152	0xbdd10655	-0.10206286
153	0xbddda07b	-0.10821625
154	0x3e10398e	0.14084455
155	0xbd2c5c28	-0.042080075
156	0x3d94c2ec	0.07263741
157	0xbe139bbc	-0.14414877
158	0x3d37b986	0.044854663
159	0x3da1fe73	0.079098605
160	0xbb99007c	-0.004669247
161	0xbdd1e25b	-0.10248252
162	0x3d2cf72f	0.04222792
163	0x3e167a6f	0.14695142
164	0x3df04166	0.11731224
165	0xbbebee37	-0.0072000283
166	0xbe2aa871	-0.16665818
167	0xbd6c1c1f	-0.057644006
168	0xbdbb8ee4	-0.091581136
169	0xbb5023a1	-0.0031759518
170	0x3dadf60a	0.08494194
171	0xbd9aa0fc	-0.075502366
172	0xbe06bf72	-0.13158968
173	0xbdb77325	-0.08957509
174	0xbd674fc1	-0.056472544
175	0xbe0ade0f	-0.13561271
176	0xbca25ea6	-0.019820523
177	0xbde2ef7f	-0.110808365
178	0x3d890b2c	0.06691584
179	0xbe07ab19	-0.13248862
180	0x3d768393	0.060184073
181	0x3dd4bb8e	0.10387336
182	0x3d75a7c6	0.059974454
183	0x3df9dca1	0.12200285
184	0xbe398390	-0.18116593
185	0xbd776dba	-0.060407378
186	0x3e37a9f7	0.1793593
187	0x3de8df6b	0.113707386
188	0x3e14e84d	0.1454174
189	0xbd63fd92	-0.055661745
190	0x3df1fa3e	0.11815308
191	0x3a1f5753	0.0006078381
192	0xbda87312	-0.08225073
193	0x3e297c07	0.16551219
194	0x3ce365e1	0.02775854
195	0xbdd6e3c1	-0.10492659
196	0xbd471890	-0.04860741
197	0xbc8f5978	-0.017498717
198	0xbd41fbef	-0.047359403
199	0xbe068c24	-0.13139397
200	0xbdeddaa9	-0.11613972
201	0x3c9c7fe7	0.019103957
202	0xbd62438a	-0.05524019
203	0x3d9decce	0.077111825
204	0x3d0139fe	0.031549446
205	0x3d1d4bb6	0.03840228
206	0xbb9e7403	-0.004835607
207	0xb923099b	-0.0001554847
208	0x3d8930fc	0.06698796
209	0x3d8772fd	0.06613729
210	0x3c5293c3	0.012852612
211	0xbdcee574	-0.101023585
212	0x3d375ef1	0.044768278
213	0xbc3e6f6d	-0.011623246
214	0x3d6fc7a5	0.058540005
215	0x3d84fee3	0.06493928
216	0xbc562891	-0.013071195
217	0xbce7f23f	-0.028313754
218	0xbdc4f3e9	-0.09616835
219	0xbe077e85	-0.13231857
220	0x3e701243	0.23444466
221	0x3d073fa0	0.033019662
222	0x3e0fdfcc	0.14050215
223	0xbcf98021	-0.030456604
224	0x3cdba549	0.026812213
225	0x3d953ed4	0.07287374
226	0x3d78faca	0.060786046
227	0x3e7e119a	0.24811402
228	0x3d086958	0.03330359
229	0x3dba577c	0.090987176
230	0xbcd6d41a	-0.026224185
231	0x3e431ccb	0.19053952
232	0xbdddcad9	-0.10829706
233	0xbde3df0f	-0.111265294
234	0xbe29c6b7	-0.1657971
235	0xbc227dae	-0.00991766
236	0xbd18a9e3	-0.03727139
237	0xbd903698	-0.07041663
238	0x3e05d325	0.13068826
239	0x3d8fb0c9	0.07016141
240	0x3e1ac64e	0.1511471
241	0x3e430711	0.19045664
242	0x3e0befa2	0.13665631
243	0xbd9c1c53	-0.0762259
244	0x3deb426c	0.11487278
245	0xbe0d0074	-0.13769704
246	0xbe01a313	-0.12659864
247	0xbdce5c55	-0.10076205
248	0x3e14302f	0.14471506
249	0x3cf56f2f	0.029960243
250	0x3e46b483	0.19404797
251	0x3e5058a9	0.20346321
252	0xbe8aea6c	-0.27131975
253	0x3e1bab1e	0.15201995
254	0x3c56c16f	0.013107642
255	0x3e436973	0.19083194

l1.bias f4 [128]
0	0x3e43398a	0.19064918
1	0x3e4dab06	0.20084772
2	0x3e519c71	0.20469834
3	0x3e4014d5	0.18757947
4	0x3e438f59	0.19097652
5	0x3e92f228	0.28700376
6	0x3de0d4e5	0.109781064
7	0x3e5390b5	0.2066067
8	0x3df59910	0.11992085
9	0x3e535b17	0.20640217
10	0xbca3155a	-0.019907642
11	0x3db18d65	0.08669547
12	0x3df89c67	0.121392064
13	0x3e269bc1	0.16270353
14	0x3e482f79	0.1954936
15	0x3e442c94	0.1915763
16	0x3e84c7ee	0.25933784
17	0x3d450402	0.048099525
18	0x3e1ec939	0.15506448
19	0x3e904261	0.28175643
20	0x3e5efb5a	0.2177557
21	0x3ce50934	0.02795849
22	0x3dd19e7c	0.102353066
23	0x3d2dfd50	0.042477906
24	0x3e6fea19	0.23429145
25	0x3cbda707	0.023150934
26	0x3e767c9d	0.24070974
27	0x3e14af95	0.14520104
28	0x3ca0b18c	0.019615911
29	0x3e6e0741	0.23244955
30	0x3daaa667	0.0833252
31	0x3d1c252a	0.03812138
32	0x3e77e29d	0.2420754
33	0x3d3bcab0	0.045847595
34	0x3daec4b2	0.085336104
35	0x3d7aa0b9	0.061188433
36	0x3d625878	0.05526015
37	0x3d6855ba	0.05672238
38	0x3e6a8c6d	0.2290513
39	0x3e47f9fa	0.19528952
40	0x3e285772	0.16439608
41	0xbc9ded1f	-0.019278107
42	0x3e7c943a	0.24665919
43	0x3ce03812	0.027370486
44	0xbc810d38	-0.015753374
45	0x3e509bb4	0.20371896
46	0x3dbcbbfd	0.092155434
47	0x3de360c6	0.111024424
48	0x3d450180	0.048097134
49	0x3daa7ef0	0.08324993
50	0x3d546ec2	0.05186344
51	0x3e16cfa3	0.14727645
52	0x3e2bb863	0.16769557
53	0x3e5fbac6	0.21848592
54	0x3e45e168	0.19324267
55	0x3dea5c9f	0.11443447
56	0x3e540539	0.20705117
57	0x3e529981	0.2056637
58	0x3e037147	0.1283618
59	0x3e344e40	0.17607975
60	0x3e72790c	0.23678988
61	0x3e135a29	0.14389862
62	0x3ea21918	0.3165977
63	0x3e589e11	0.21154048
64	0x3dd80d09	0.10549361
65	0x3cd9cc06	0.026586544
66	0x3e7d097a	0.24710646
67	0x3e92a3a7	0.28640482
68	0x3e59ef89	0.21282782
69	0x3e5ba13e	0.21448228
70	0x3d99c540	0.075083256
71	0x3e0261f5	0.1273268
72	0x3e1599fe	0.14609525
73	0x3d3af4e0	0.045643687
74	0x3e4dbb16	0.20090899
75	0x3e0af603	0.13570409
76	0x3afd7dd9	0.0019339874
77	0x3ccf1e23	0.025282925
78	0x3e261085	0.16217239
79	0x3df17163	0.11789205
80	0x3e33489a	0.17508164
81	0x3d68d545	0.056844015
82	0x3cd62477	0.026140435
83	0xbd55c8d0	-0.052193463
84	0x3d945fd2	0.07244839
85	0x3d40d706	0.047080062
86	0x3d6b3c99	0.057430837
87	0x3dc450cc	0.09585723
88	0x3e0d4c8e	0.13798735
89	0x3d033366	0.03203144
90	0x3e248ba7	0.16068898
91	0x3d92b64c	0.071636766
92	0x3e83efd3	0.2576891
93	0xbc8c276c	-0.017108642
94	0x3bfe533e	0.007761388
95	0x3e3e210f	0.18567298
96	0x3e372ee1	0.17888977
97	0xbcb542f2	-0.022126649
98	0x3d340577	0.043950524
99	0x3dbad09a	0.09121819
100	0x3e300943	0.17191033
101	0x3e0eeaca	0.13956752
102	0x3e0ef89d	0.13962026
103	0x3e0d886d	0.13821574
104	0x3e3d9733	0.18514709
105	0x3cd5a6b6	0.02608047
106	0x3ceeb65c	0.02913969
107	0x3d5d2a43	0.053995382
108	0x3dc03165	0.09384421
109	0x3dc9adfc	0.09847638
110	0x3c5e7a4b	0.013578962
111	0x3da179bf	0.07884549
112	0x3d929983	0.07158186
113	0x3cecde15	0.02891449
114	0x3e8c6a9f	0.27425095
115	0x3e29292c	0.16519612
116	0x3c8b5f05	0.017013082
117	0x3d437c3e	0.04772591
118	0x3e90991d	0.28241816
119	0x3e2d6d0a	0.16936126
120	0x3e11edbc	0.14250845
121	0x3dda2cc8	0.106530726
122	0x3c97e7c0	0.018543124
123	0x3e29dc72	0.16588
124	0x3d282e1b	0.041059595
125	0x3ca11556	0.019663494
126	0x3e60e7a6	0.21963367
127	0x3e0b0b5d	0.13578553

l2.weight f4 [64, 128]
0	0x3d9edfb2	0.0775751
1	0x3e796477	0.2435473
2	0xbd0067f3	-0.031349134
3	0x3e2f8a73	0.17142658
4	0x3e15a5fd	0.14614101
5	0xbd6f204b	-0.058380406
6	0x3c2a3adc	0.01039001
7	0xbc942dab	-0.018088182
8	0xbd583c09	-0.05279163
9	0x3e4e4020	0.20141649
10	0x3d42e12e	0.04757803
11	0xbdd830e0	-0.10556197
12	0x3ca61d12	0.020277534
13	0x3d5fc5b3	0.0546319
14	0x3da2383a	0.079208806
15	0x3c8dc7c5	0.017307172
16	0xbd862886	-0.06550698
17	0x3d68b688	0.0568147
18	0xbc15e358	-0.009148441
19	0x3e05aff5	0.13055404
20	0xbe13f2a4	-0.14448029
21	0x3e1ced8f	0.15324996
22	0x3d4104f7	0.047123875
23	0x3cfde100	0.030991077
24	0x3e78a21a	0.24280587
25	0x3e284215	0.16431458
26	0x3d07004e	0.032959275
27	0x3d1d8f09	0.038466487
28	0x3e33be8c	0.17553157
29	0xbca85bf3	-0.020551657
30	0xbe014978	-0.12625682
31	0xbd534cd1	-0.05158693
32	0xbca1d40b	-0.01975443
33	0x3d2e8cac	0.042614624
34	0x3e58cb76	0.21171364
35	0x3e649b61	0.22324897
36	0xbd996ba8	-0.07491237
37	0x3df575bb	0.11985346
38	0x3e0c275d	0.13686891
39	0x3d86e04a	0.065857485
40	0x3e33623d	0.17517944
41	0x3e1002e3	0.14063601
42	0x3dbc5081	0.091950424
43	0x3c8ae8c2	0.01695669
44	0x3ddb8329	0.10718376
45	0x3d84d7ee	0.06486498
46	0x3bdc9101	0.006731153
47	0xbe1bde8f	-0.15221618
48	0x3c6dd382	0.014515759
49	0x3dc6690c	0.09688005
50	0x3d631c3a	0.05544684
51	0xbdeb5cad	-0.11492286
52	0xbe0ec4f5	-0.1394232
53	0x3d92d764	0.07169989
54	0x3d60a83a	0.054847933
55	0x3d964d91	0.07339013
56	0xbe078330	-0.13233638
57	0x3d6018f6	0.054711305
58	0x3b092c47	0.0020930932
59	0x3e64b0c5	0.22333057
60	0x3be23c45	0.0069041573
61	0xbdda313f	-0.10653924
62	0xbdd8c960	-0.10585284
63	0x3b05bc8f	0.002040658
64	0xbd319959	-0.043359134
65	0x3dd8da3b	0.10588499
66	0xbde8fc72	-0.11376275
67	0xbd84e33f	-0.06488656
68	0xbd8f733f	-0.07004403
69	0xbe08c2ef	-0.13355611
70	0x3d94bdbe	0.07262753
71	0x3dbbc49d	0.091683604
72	0x3c299fb1	0.010353015
73	0x3ddffb71	0.109366305
74	0x3ced22c4	0.028947242
75	0x3d0cc2b7	0.034365382
76	0x3d57caa7	0.0526835
77	0x3d646369	0.055758867
78	0x3d0771a4	0.03306736
79	0x3e0ea97d	0.13931842
80	0x3e4a9531	0.19783475
81	0xbddee1ec	-0.10882935
82	0xbe40bb2e	-0.18821403
83	0x3e09726b	0.13422553
84	0x3da51fa7	0.08062678
85	0x3cb16b22	0.02165753
86	0xbd9f5814	-0.077804714
87	0xbd029fd4	-0.031890705
88	0xbe0a510c	-0.1350748
89	0xbe1cc6af	-0.15310167
90	0x3dda44d0	0.10657656
91	0xbdfab38d	-0.12241278
92	0x3c420f3c	0.0118444525
93	0xbd5c8bd1	-0.053844277
94	0xbbeed2fa	-0.007288334
95	0x3da25f4c	0.07928333
96	0x3e4b48ef	0.1985204
97	0x3d2b132a	0.041766323
98	0xbccddd67	-0.025129987
99	0xbe0454e9	-0.12923016
100	0x3d8663a6	0.06561975
101	0xbd0ea369	-0.03482381
102	0xbc819255	-0.015816847
103	0xbc4800f0	-0.012207255
104	0x3da7c5e7	0.08192044
105	0x3d562c4f	0.05228835
106	0x3d31bd4b	0.043393414
107	0x3dd4e0ec	0.10394463
108	0x3e208c9b	0.15678637
109	0xbd21e932	-0.039529033
110	0x3e80beeb	0.2514566
111	0xbd7496a8	-0.05971399
112	0x3dd21193	0.10257258
113	0x3d39023c	0.045168146
114	0x3dbc58cc	0.09196624
115	0xbe043fc7	-0.12914954
116	0x3e3cc7b2	0.18435553
117	0xbdda5bbf	-0.106620304
118	0xbdb3a2be	-0.08771275
119	0x3dcf555f	0.10123705
120	0xbcfde75f	-0.030994115
121	0xbd772d36	-0.06034585
122	0x3e211d97	0.15733944
123	0xbc90c6e9	-0.017672973
124	0x3dcbe3ca	0.09955557
125	0x3d37f8ba	0.04491494
126	0x3d9b5f57	0.07586544
127	0x3d0e970c	0.03481202
128	0x3ce8a652	0.02839962
129	0xbe016ac9	-0.12638392
130	0xbd248ae5	-0.040171523
131	0xb9e6fb99	-0.00044056473
132	0x3c8543db	0.016267708
133	0x3d1f8fbd	0.03895544
134	0xbd667200	-0.056261063
135	0x3e60e0da	0.21960774
136	0xbd9bc32b	-0.07605585
137	0xbe3037f6	-0.17208847
138	0xbe1dd9ba	-0.15415087
139	0xbe4c8178	-0.19971263
140	0x3e36862f	0.17824624
141	0xbe34dc46	-0.17662153
142	0xbd8d2e8d	-0.068936445
143	0xbe1dce8b	-0.15410821
144	0x3de10017	0.10986345
145	0x3e4cefa1	0.20013286
146	0x3ea24c38	0.31698775
147	0x3dcd8c6c	0.10036549
148	0xbd154497	-0.036442365
149	0x3e142c12	0.14469936
150	0xbe2c9780	-0.16854668
151	0xbe2e736b	-0.17036216
152	0x3e08ac2a	0.13346925
153	0xbc175f8b	-0.009239088
154	0x3e47f643	0.19527535
155	0x3e52afc6	0.20574865
156	0xbe2781d0	-0.16358113
157	0xbdb67ca2	-0.089104906
158	0x3dfd44b9	0.123666234
159	0x3d177e9c	0.03698598
160	0x3dc977f7	0.098373346
161	0x3dfa04b8	0.12207931
162	0xbdcb93ae	-0.09940277
163	0x3e4db873	0.20089893
164	0x3d08b874	0.033379033
165	0x3e14dfd7	0.14538513
166	0x3e68f33c	0.22749037
167	0x3d805bd4	0.06267515
168	0x3db4bc27	0.0882495
169	0x3e4be71a	0.19912377
170	0xbd372a65	-0.044718165
171	0xbda58aa5	-0.08083085
172	0x3da11b7d	0.07866571
173	0xbcca0f39	-0.024665462
174	0x3e883619	0.26603773
175	0x3dbe1d00	0.09282875
176	0x3e1f4682	0.1555424
177	0x3e8a7ec7	0.27049848
178	0x3d0cacbd	0.034344424
179	0xbc604b80	-0.013689876
180	0xbda14d71	-0.07876099
181	0xbd30b539	-0.043141577
182	0xbe09f423	-0.13472037
183	0xbe05583a	-0.13021937
184	0x3e5b9c0a	0.21446243
185	0x3e42cc6d	0.19023295
186	0x3e5d11a0	0.21588755
187	0xbe386264	-0.18006283
188	0x3de387b1	0.111098655
189	0xbd3a50d6	-0.045487247
190	0x3d57c540	0.052678347
191	0xbd7c5344	-0.061602846
192	0x3e2be49a	0.16786423
193	0xbdf7851c	-0.120859355
194	0x3e04cc37	0.12968527
195	0x3d901a6d	0.0703629
196	0x3e330528	0.17482436
197	0x3d8078cc	0.0627304
198	0x3c898663	0.016787713
199	0x3e330520	0.17482424
200	0xbd3c63a5	-0.045993466
201	0x3e6515af	0.22371553
202	0xbdfe6843	-0.1242223
203	0x3e423578	0.18965709
204	0xbe3b162c	-0.18270177
205	0x3d6c314e	0.057664208
206	0xbce694ae	-0.028147068
207	0x3e6b9115	0.23004563
208	0x3e4641af	0.19360994
209	0xbe0a183a	-0.13485804
210	0x3dd39de5	0.1033285
211	0x3e4ffad5	0.20310529
212	0xbdc56b48	-0.09639603
213	0x3da8178a	0.08207615
214	0x3d810a1d	0.06300757
215	0xbd017acc	-0.03161125
216	0x3e83dcfa	0.2575453
217	0x3e69d00b	0.22833268
218	0xbdeeec21	-0.11666132
219	0xbd872529	-0.065988846
220	0x3e1142f3	0.14185695
221	0x3deb82c8	0.11499554
222	0x3d9b7580	0.07590771
223	0x3d31c250	0.0433982
224	0x3d3be6ba	0.045874335
225	0x3c0f77a3	0.008756551
226	0xbde65de8	-0.1124838
227	0x3bf34140	0.00742355
228	0x3bd274c5	0.0064226114
229	0xbe64e2b0	-0.223521
230	0xbe02e4bf	-0.12782572
231	0xbb6deffe	-0.0036306377
232	0x3e17ffe0	0.14843702
233	0x3dc731eb	0.09726318
234	0x3cfb014b	0.030640265
235	0xbd15d528	-0.036580235
236	0x3c9cbfd9	0.019134449
237	0x3d83ab5f	0.06429171
238	0x3d857283	0.06515982
239	0x3d56aff6	0.052413903
240	0x3e03231d	0.12806363
241	0x3e3ecc6b	0.18632667
242	0xbd9d01c7	-0.076663546
243	0xbd778987	-0.06043389
244	0x3e1f6603	0.15566258
245	0x3d3310b2	0.043717094
246	0x3d04937a	0.032367207
247	0x3d4da17f	0.050202843
248	0xbe1b886c	-0.1518876
249	0x3cc3407a	0.023834456
250	0x3cf2c124	0.029633112
251	0xbdb734e6	-0.089456365
252	0x3e3d438d	0.184828
253	0x3d6d480f	0.05793005
254	0x3e371f35	0.17882998
255	0x3c1f0072	0.009704696

l2.bias f4 [64]
0	0x3de0f067	0.10983353
1	0x3df0677b	0.11738487
2	0xbc74da66	-0.014944648
3	0xbbf6a89e	-0.007527425
4	0x3d99184d	0.07475338
5	0x3c599043	0.013279024
6	0x3cd32d52	0.025778446
7	0xbc18913c	-0.00931197
8	0x3de80d75	0.11330692
9	0x3da15cb4	0.0787901
10	0xbccceb2c	-0.025014482
11	0x3dd88e35	0.10573999
12	0x3d84225e	0.064518675
13	0x3d4ec9c9	0.050485406
14	0x3e113ade	0.14182612
15	0x3e10e042	0.14148048
16	0xbc8fdf84	-0.017562635
17	0x3e26aab2	0.16276053
18	0xbc247e26	-0.010039842
19	0x3e2b4b03	0.16727833
20	0x3d5f5837	0.054527488
21	0x3dc037f3	0.093856715
22	0x3dc86d9b	0.097865306
23	0x3d3f0689	0.04663709
24	0x3c9d188e	0.019176748
25	0x3d3944ed	0.04523175
26	0x3d64c3f8	0.055850953
27	0x3dd02a15	0.101642765
28	0x3cf12a32	0.029439066
29	0xbda7a17e	-0.08185099
30	0x3da18215	0.07886139
31	0xbd0f9582	-0.03505469
32	0x3e485dda	0.19567052
33	0x3dbc7eb8	0.09203857
34	0x3d7b6a79	0.061380837
35	0x3e4ddbb2	0.20103338
36	0x3dab7af1	0.083730586
37	0x3d6915d4	0.056905583
38	0x3e221e73	0.15831928
39	0x3dd7251b	0.10505124
40	0x3d78c7b2	0.06073732
41	0x3d95f765	0.073225774
42	0xbd347827	-0.0440599
43	0xbc5b393f	-0.013380348
44	0x3dae2629	0.08503372
45	0xbd1fb50c	-0.03899102
46	0xbb9e6dda	-0.0048348727
47	0x3da903da	0.08252688
48	0x3d47013c	0.04858516
49	0x3e18c34a	0.14918247
50	0x3d131f8e	0.035918765
51	0x3d632f32	0.05546493
52	0x3dcec319	0.10095806
53	0x3d219a0f	0.039453562
54	0xbcb2e486	-0.021837484
55	0x3df8f483	0.12156012
56	0xbc0ed7bb	-0.008718426
57	0x3e18e6d9	0.14931811
58	0xbd3ab04a	-0.04557828
59	0x3d863b12	0.065542355
60	0x3cf8b952	0.030361805
61	0x3d9baf0e	0.076017484
62	0x3e010d03	0.1260262
63	0x3d92e0b7	0.07171767

l3.weight f4 [32, 64]
0	0x3db8c489	0.09021861
1	0x3e6940ca	0.22778621
2	0xbe4c782b	-0.19967715
3	0xbe1ac150	-0.15112805
4	0xbe384dbc	-0.17998403
5	0x3d7482cf	0.05969506
6	0x3e3b95e6	0.183189
7	0xbc4fb3c3	-0.012677136
8	0x3dc17a33	0.09447136
9	0x3d864064	0.0655525
10	0x3e4be297	0.19910656
11	0x3cce42cf	0.025178341
12	0xbcedd73c	-0.029033296
13	0x3e093d37	0.13402258
14	0x3bbc0065	0.0057373517
15	0xbe6bc0b0	-0.23022723
16	0x3e471d3d	0.19444747
17	0xbdb4a2d8	-0.088201225
18	0xbdfc6b77	-0.12325185
19	0xbe065935	-0.13119967
20	0x3d2d239e	0.042270295
21	0x3b3cf826	0.0028834431
22	0x3d3a2a05	0.04545023
23	0xbdaa9efd	-0.08331106
24	0x3d55c625	0.05219092
25	0x3e2c106e	0.16803142
26	0x3d934ce3	0.07192399
27	0x3e0d72fb	0.13813393
28	0x3e4220e8	0.18957865
29	0x3dfd05da	0.12354632
30	0xbc30e2b7	-0.0107962405
31	0xbd04f286	-0.03245785
32	0x3e95225c	0.29127777
33	0x3da01e74	0.078183085
34	0x3ca98d4f	0.020697264
35	0x3d08cdd0	0.033399403
36	0x3ce13123	0.02748925
37	0xbe202e14	-0.15642577
38	0xbdaffeee	-0.08593546
39	0x3e998839	0.29986742
40	0xbdbafe95	-0.09130589
41	0x3e5520a5	0.20813234
42	0x3e1e48d8	0.15457475
43	0xbdb2c887	-0.08729654
44	0x3d37478e	0.044745974
45	0xbd73a562	-0.059483893
46	0x3e3884ba	0.18019381
47	0x3e4911cc	0.19635695
48	0xbd826dc7	-0.063685946
49	0x3e23d9f1	0.16001107
50	0x3d8bb1fa	0.06821056
51	0x3e7d21b8	0.24719894
52	0x3c3356fc	0.010946032
53	0x3e54808e	0.20752165
54	0xbdb57502	-0.08860208
55	0x3d691507	0.05690482
56	0x3d8a532d	0.06754146
57	0xbe21b3ec	-0.15791291
58	0x3d97edb4	0.07418385
59	0xbddd13b6	-0.10794775
60	0x3dafc2c5	0.08582071
61	0xbc4af511	-0.01238753
62	0x3e0abe75	0.13549216
63	0xbcf520f9	-0.02992295
64	0xbc949e4b	-0.018141886
65	0x3d0c6b65	0.034282107
66	0x3de9cec8	0.114163935
67	0x3df8f190	0.121554494
68	0xbdf8f56b	-0.12156185
69	0x3e24eb7d	0.16105457
70	0x3dcda16a	0.10040553
71	0x3db0272b	0.08601221
72	0xbd7701be	-0.060304396
73	0x3dbf3930	0.093370795
74	0x3e10ccd5	0.14140637
75	0xbce461e0	-0.027878702
76	0x3e3987ac	0.18118161
77	0xbe146f53	-0.14495592
78	0x3dbbcb45	0.0916963
79	0x3cfd27f4	0.03090284
80	0x3e15c280	0.14624977
81	0xbe6d9dcc	-0.23204726
82	0xbdfedb90	-0.12444222
83	0xbe7e8936	-0.2485703
84	0x3e15c951	0.14627577
85	0xba6432b8	-0.00087050674
86	0x3dd5c594	0.10438076
87	0x3d2e396c	0.04253523
88	0xbe4903ea	-0.196304
89	0x3bb7181c	0.005587591
90	0x3e2f0845	0.17092998
91	0x3e377eb3	0.17919426
92	0x3e550e39	0.20806207
93	0xbd65512c	-0.055985615
94	0x3e0e26a2	0.13881925
95	0xbd02aa83	-0.031900894
96	0xbe37ab5a	-0.17936459
97	0xbe0fcd62	-0.14043191
98	0xb7e3462a	-2.7093181e-05
99	0xbe07e8e4	-0.13272434
100	0x3e70ccdd	0.23515649
101	0x3df05007	0.11734014
102	0xbe04ab90	-0.12956071
103	0xbd9e19e8	-0.07719785
104	0xbdc52046	-0.09625296
105	0x3e096735	0.13418277
106	0x3e23c41f	0.15992783
107	0x3e072c2c	0.13200444
108	0x3d95c4e7	0.07312947
109	0x3ea565c4	0.32304204
110	0xbe19c037	-0.1501473
111	0xbd048c10	-0.032360137
112	0xbe43aec5	-0.19109638
113	0xbe3f1f95	-0.18664391
114	0xbbdc12cb	-0.0067161075
115	0xbe37bc3d	-0.17942901
116	0x3d1a2b04	0.03763868
117	0x3bcd7ffd	0.006271361
118	0x3ddeb4e5	0.10874347
119	0x3e2fcc68	0.17167819
120	0x3c79f780	0.0152567625
121	0x3e237d85	0.1596585
122	0x3da887ac	0.08229002
123	0x3af35103	0.0018563572
124	0xbe730a2d	-0.2373435
125	0xbb5bfaf8	-0.0033566337
126	0xbdddd652	-0.10831894
127	0xbd6e5eb3	-0.05819578
128	0xbdc08146	-0.09399657
129	0x3db6d16d	0.089266635
130	0xbd516935	-0.051125724
131	0x3e87d7c5	0.26531807
132	0x3d4b7289	0.049669776
133	0x3dc182c6	0.09448771
134	0xbe193d8d	-0.14964886
135	0xbe51ed2e	-0.20500633
136	0x3cf030b9	0.029320108
137	0xbd2f755f	-0.042836543
138	0x3df65c06	0.12029271
139	0x3d813240	0.063084126
140	0x3daa6bc3	0.08321335
141	0x3cbaeda4	0.022818394
142	0x3e24936b	0.1607186
143	0xbd7e17d8	-0.062034458
144	0xbc0bfe11	-0.008544461
145	0xbc19c86a	-0.009386161
146	0xbd9a465d	-0.07532952
147	0xbb47cf41	-0.0030488523
148	0x3e40c109	0.18823637
149	0x3d578b31	0.052622978
150	0x3dc80d71	0.09768189
151	0xbdb80028	-0.08984405
152	0xbda19a52	-0.078907624
153	0x39edff62	0.00045394438
154	0x3ddd16cd	0.107953645
155	0x3e832aac	0.25618494
156	0x3d5fa253	0.054598164
157	0x3db230b4	0.08700696
158	0x3e8ed209	0.2789462
159	0x3d4c170e	0.049826674
160	0x3e022e55	0.12712987
161	0xbe3c26f9	-0.18374242
162	0xbe8eeb02	-0.27913672
163	0x3e0fb9e9	0.14035763
164	0x3d960656	0.07325427
165	0x3e02fccb	0.12791745
166	0xbe3c2c93	-0.18376379
167	0xbbae3e48	-0.005317483
168	0x3dfeb885	0.12437538
169	0x3e96a518	0.29422832
170	0x3cd63d3a	0.026152242
171	0x3e836036	0.2565934
172	0x3e122b2e	0.14274284
173	0x3d5cee9d	0.053938497
174	0xbe91d167	-0.28480074
175	0x3e201c58	0.15635812
176	0xbe4003d2	-0.18751457
177	0x3e144297	0.14478527
178	0x3e2eaf50	0.17059064
179	0xbe6485ff	-0.2231674
180	0x3e0a43b9	0.13502397
181	0x3e467f78	0.19384563
182	0x3c82399a	0.015896607
183	0x3e20981e	0.15683028
184	0xbe6e46a7	-0.23269139
185	0x3e6361a9	0.22205223
186	0x3d9d2b49	0.076742716
187	0xbe31d00b	-0.17364518
188	0xbe75c215	-0.23999818
189	0x3e7eb5e5	0.24874075
190	0xbd53b8c1	-0.051689867
191	0xbe0e7eb5	-0.13915522
192	0xbdaccf52	-0.08437981
193	0x3e71c741	0.23611166
194	0xbe2f7863	-0.17135768
195	0xbc5c0a79	-0.013430231
196	0x3c8a4395	0.016877929
197	0x3e437676	0.19088158
198	0xbe653b7c	-0.22385973
199	0xbdda13eb	-0.1064833
200	0x3e378b01	0.1792412
201	0x3d9a0552	0.07520546
202	0xbe101638	-0.14070976
203	0xbe60feac	-0.2197215
204	0x3b3fcbb2	0.00292657
205	0x3d9174f0	0.07102382
206	0xbd806842	-0.062698856
207	0x3de3dc8f	0.111260526
208	0x3e5ab3e9	0.21357693
209	0x3e6cd6e6	0.23128852
210	0xbe38a131	-0.1803024
211	0x3e031e2d	0.1280448
212	0x3ce40dc3	0.027838593
213	0x3d987a3a	0.07445188
214	0x3db20d58	0.08693951
215	0x3d81b52a	0.063333824
216	0xbe1d4748	-0.15359223
217	0xbe2f239e	-0.1710343
218	0xbe37f6da	-0.1796526
219	0x3d7962f8	0.0608854
220	0x3e1a9b32	0.15098265
221	0x3d30099c	0.042977914
222	0xbd2d6d51	-0.04234058
223	0x3d9fdaf5	0.078054346
224	0x3e11c5f2	0.14235666
225	0xbe2d7928	-0.16940749
226	0xbc45591b	-0.01204517
227	0x3e88a59b	0.26688847
228	0x3e241007	0.16021739
229	0xbbcbeec2	-0.0062235305
230	0x3e587d87	0.21141635
231	0x3e2f911c	0.17145199
232	0xbe379a8c	-0.17930049
233	0x3d642217	0.055696573
234	0xbdd78811	-0.105239995
235	0xbe67790e	-0.22604772
236	0x3c178b66	0.009249544
237	0xbe67c707	-0.22634517
238	0xbdca840c	-0.09888467
239	0xbe00ceaf	-0.12578844
240	0x3d76213d	0.060090292
241	0x3e63f6b7	0.22262083
242	0xbb19e43c	-0.0023481986
243	0xbdd2ccef	-0.10292994
244	0xbcfb4b49	-0.030675547
245	0x3e42e28e	0.19031736
246	0x3df37529	0.11887581
247	0xbc43dfbe	-0.0119552
248	0x3e05a143	0.13049798
249	0xbc066ee1	-0.0082051465
250	0xbbe484a6	-0.0069738207
251	0x3d2d04f6	0.04224106
252	0xbda02a74	-0.07820597
253	0xbd3d42a2	-0.046206124
254	0x3e9e3c82	0.3090554
255	0x3e23346c	0.15937966

l3.bias f4 [32]
0	0x3dba046b	0.09082874
1	0x3c666c71	0.01406394
2	0x3e013356	0.1261724
3	0x3e03bc12	0.12864712
4	0x3bceca72	0.0063107545
5	0xbd86049e	-0.065438494
6	0x3dca64c6	0.09882502
7	0x3d8d6c0f	0.06905376
8	0x3d0bdc71	0.034145776
9	0x3e0df070	0.13861251
10	0xbc3c6562	-0.011498781
11	0x3dd25bd6	0.102714226
12	0xbd7caa3a	-0.06168578
13	0xbde45549	-0.11149079
14	0xbddd5464	-0.10807112
15	0xbcd5b62f	-0.026087848
16	0xbd876869	-0.066117115
17	0x3df39670	0.11893928
18	0xbdd00c55	-0.10158602
19	0x3dbeae36	0.09310572
20	0x3ddd8226	0.108158395
21	0xbc047dd2	-0.0080866385
22	0x3e46bec6	0.19408712
23	0xbde9a89b	-0.11409112
24	0x3dced67c	0.100995034
25	0xbd9b6bab	-0.075888954
26	0xbd8ab3a1	-0.06772543
27	0x3b8658f9	0.004099962
28	0xbd26df44	-0.040740266
29	0x3e205f7c	0.15661424
30	0x3d5dffbe	0.054198973
31	0xbdc86c2d	-0.09786258

l4.weight f4 [13, 32]
0	0x3e703504	0.23457724
1	0xbe99f7ca	-0.3007186
2	0xbdf31e3f	-0.11871003
3	0xbe20c316	-0.1569942
4	0xbed20345	-0.4101812
5	0xbe872990	-0.26398897
6	0xbea0339b	-0.31289372
7	0xbc23ec0d	-0.010005009
8	0xbeb3300e	-0.349976
9	0xbd52b490	-0.05144173
10	0xbe9653ce	-0.29360813
11	0x3d928b22	0.07155444
12	0x3e0b2062	0.13586572
13	0xbe331711	-0.17489268
14	0xbd952ee6	-0.07284336
15	0x3dba25d1	0.09089244
16	0xbde6f452	-0.11277069
17	0x3e4c3067	0.19940339
18	0xbe0486f1	-0.12942101
19	0xbea30b17	-0.31844398
20	0xbe6e0d6c	-0.23247308
21	0xbe2021b7	-0.15637861
22	0x3d213922	0.039361127
23	0xbe0cbd31	-0.13744046
24	0xbdec9b9e	-0.11553119
25	0xbd90172a	-0.07035668
26	0x3b9a81ab	0.0047151647
27	0x3e785d1d	0.2425427
28	0xbe8636f5	-0.26213804
29	0xbebe5c97	-0.37180015
30	0x3e51a39d	0.2047257
31	0xbc1f788b	-0.0097333295
32	0xbdce402c	-0.100708336
33	0x3e09fb5f	0.13474797
34	0xbe9eb3c7	-0.30996534
35	0xbe47ec5f	-0.19523762
36	0x3e1a0175	0.15039618
37	0x3e157c0c	0.14598101
38	0x3e6266d6	0.22109541
39	0xbe6ec0b3	-0.23315696
40	0xbdabd0ee	-0.083894596
41	0x3e20dceb	0.15709274
42	0x3de8aafe	0.11360739
43	0xbe628376	-0.22120461
44	0xbcb3649c	-0.02189856
45	0x3bb9f1af	0.005674563
46	0x3dac2260	0.08404994
47	0x3e56543a	0.20930567
48	0x3dd7bd99	0.1053421
49	0x3d965e6d	0.07342229
50	0xbe175699	-0.14779128
51	0x3de9b2ac	0.11411032
52	0x3d067999	0.03283081
53	0xbdd28b31	-0.10280455
54	0xbec0a6ac	-0.3762716
55	0xbdab0cf0	-0.08352077
56	0xbd3517cf	-0.04421216
57	0xbe7c4329	-0.24634995
58	0xbe94eb37	-0.29085705
59	0x3e348b86	0.17631349
60	0xbeddd73f	-0.43328282
61	0x3ddaea46	0.10689215
62	0xbeaed97c	-0.34150302
63	0xbe8cfa70	-0.2753482
64	0xbc7af155	-0.015316327
65	0xbeb05574	-0.34440196
66	0xbea3e006	-0.32006854
67	0x3e034f35	0.12823184
68	0x3e1ae7d0	0.15127492
69	0xbdc638a8	-0.09678775
70	0x3d8bf9ec	0.06834778
71	0x3e234daa	0.15947595
72	0xbe44a4d1	-0.19203497
73	0xbe2446f9	-0.16042699
74	0x3d884b7b	0.06655022
75	0x3dc4ad7c	0.09603402
76	0xbe75a483	-0.23988537
77	0x3dbb03c4	0.091315776
78	0xbdcbe0a9	-0.0995496
79	0x3e436185	0.1908017
80	0xbe01f44c	-0.12690848
81	0xbeb2f953	-0.34955844
82	0xbce41f9c	-0.027847104
83	0x3e55ce47	0.2087947
84	0xbdd4e6aa	-0.10395558
85	0x3df8382b	0.12120088
86	0xbe7a7ea8	-0.24462378
87	0x3cebc1ce	0.028778937
88	0x3de82bb0	0.11336458
89	0xbe34e18c	-0.17664164
90	0x3da901b3	0.08252277
91	0x3e3b01ef	0.18262456
92	0x3cdfe66e	0.027331557
93	0xbead27a4	-0.33819306
94	0xbe56c491	-0.20973422
95	0xbe0521d2	-0.13001183
96	0x3d9894f5	0.07450286
97	0xbea6172f	-0.32439563
98	0xbe42db91	-0.1902907
99	0xbd2a1ba3	-0.041530263
100	0xbe1d1b51	-0.15342452
101	0xbec51803	-0.38494882
102	0x3e4ea007	0.20178233
103	0x3b9d8934	0.0048076157
104	0xbddc8ec3	-0.10769417
105	0xbe8e0bc3	-0.27743348
106	0xbe49b377	-0.19697367
107	0x3e3daef5	0.18523772
108	0xbeb573ce	-0.35439914
109	0x3daa7416	0.08322923
110	0x3e1aebd1	0.1512902
111	0xbdb69805	-0.08915714
112	0xbeb779af	-0.35835025
113	0x3e1408f9	0.14456548
114	0x3d48f287	0.049059417
115	0xbeb06751	-0.34453824
116	0xbe27021c	-0.16309398
117	0xbe151457	-0.1455854
118	0xbda3476b	-0.07972606
119	0xbd12a872	-0.035805173
120	0xbed9ac19	-0.42514113
121	0xbe8b9e99	-0.27269438
122	0x3e74095b	0.23831694
123	0x3e06d6e8	0.13167918
124	0x3e48f195	0.19623406
125	0xbeb48705	-0.35259262
126	0x3dc8d671	0.098065265
127	0x3d9c7804	0.07640079
128	0x3e652958	0.22379053
129	0xbe6e8c11	-0.23295619
130	0x3e19e4a1	0.15028621
131	0x3eabcb9b	0.33553776
132	0xbd8bab65	-0.068198
133	0xbd823d3a	-0.06359334
134	0xbe633d93	-0.22191457
135	0x3de625fc	0.11237714
136	0xbe29d71f	-0.16585968
137	0x3decc09c	0.11560175
138	0x3e51be5d	0.20482774
139	0xbe0db4f4	-0.1383856
140	0x3c33663a	0.010949666
141	0x3d866252	0.06561722
142	0xbecdd9ac	-0.40205133
143	0xbe4930ec	-0.19647568
144	0xbe0b73f7	-0.13618456
145	0xbee74a4f	-0.4517388
146	0x3dc5baeb	0.096547924
147	0x3e641e0c	0.22277087
148	0x3d21853d	0.039433707
149	0x3d027b38	0.03185579
150	0x3e45eda9	0.19328941
151	0xbe43d44c	-0.19123954
152	0x3e1f1024	0.15533501
153	0xbe2eb9cb	-0.17063062
154	0xbedf9651	-0.4366937
155	0x3db0e8bf	0.08638143
156	0xbed310a2	-0.41223627
157	0x3dda1944	0.1064935
158	0xbe9897f2	-0.29803425
159	0xbeb7125b	-0.35756192
160	0xbeb537fe	-0.3539428
161	0xbe8e05a5	-0.2773868
162	0xbd92e5ff	-0.071727745
163	0xbd25ad68	-0.040448576
164	0xbd259d7d	-0.040433396
165	0x3ddccc08	0.107811034
166	0x3e20e03f	0.15710543
167	0xbdd8654e	-0.10566197
168	0x3e8251ca	0.25453025
169	0x3e19a32c	0.15003651
170	0xbe2bb5e1	-0.167686
171	0x3e293f3f	0.16528033
172	0xbe887a58	-0.2665584
173	0x3d3640aa	0.044495262
174	0xbe25ed32	-0.16203764
175	0xbeb817a8	-0.35955548
176	0xbdbd6997	-0.09248655
177	0xbdd75644	-0.10514501
178	0x3e20be56	0.15697607
179	0x3dbb35fb	0.09141155
180	0x3d9cbbfc	0.07653043
181	0xbd45540b	-0.048175853
182	0x3e1988a5	0.14993532
183	0xbe312ed8	-0.17303026
184	0xbe8332e6	-0.2562477
185	0xbe9ceb35	-0.306482
186	0xbdc5ab36	-0.096517965
187	0xbebc6225	-0.36793628
188	0x3e7f7112	0.24945477
189	0x3e52a6b8	0.2057141
190	0x3d2e2313	0.042513918
191	0x3dc86f19	0.09786815
192	0x3e63afad	0.22234984
193	0x3e6487ae	0.22317383
194	0x3d869f67	0.06573372
195	0x3e6ce80e	0.23135397
196	0x3e1fa6e3	0.15591006
197	0xbe6380cf	-0.22217105
198	0xbe4e076c	-0.20120019
199	0x3e7bfa72	0.24607256
200	0xbeb19fba	-0.34692174
201	0xbe98b0a3	-0.29822263
202	0xbd62f1ab	-0.055406254
203	0xbecfd9e6	-0.4059593
204	0x3e577bbc	0.21043295
205	0xbe0ff594	-0.14058524
206	0x3c2413fa	0.010014528
207	0x3b989f1c	0.004657639
208	0xbe9c8e65	-0.30577388
209	0xbead7a1b	-0.33882222
210	0x3e1277c0	0.14303493
211	0xbeb68002	-0.35644537
212	0x3e063366	0.13105544
213	0x3d7022fe	0.05862712
214	0xbc5ab2db	-0.0133483065
215	0xbdb4ac0d	-0.088218786
216	0xbd07a36c	-0.033114836
217	0xbd300d63	-0.042981517
218	0x3e1c7c62	0.15281823
219	0x3db030b5	0.0860304
220	0xbe4184c6	-0.18898305
221	0xbe355569	-0.17708363
222	0xbe9a30f6	-0.3011548
223	0xbdd0da67	-0.10197907
224	0xbd94ad7f	-0.07259654
225	0x3d9bb3e9	0.076026745
226	0x3e29ae77	0.1657046
227	0xbeaa07af	-0.33208987
228	0xbe28a545	-0.16469295
229	0x3de85607	0.113445334
230	0xbec993aa	-0.3937047
231	0x3e298083	0.1655293
232	0x3d1a6239	0.03769133
233	0xbdb0b6df	-0.0862863
234	0xbe7129c6	-0.23551092
235	0xbe83f29d	-0.25771037
236	0x3e1d099c	0.15335697
237	0xbde73f8e	-0.11291419
238	0x3e07d1de	0.13263652
239	0xbe1976ac	-0.14986676
240	0xbe184aed	-0.14872332
241	0x3df356a2	0.11881758
242	0xba404936	-0.0007335128
243	0xbeb6eda2	-0.35728174
244	0x3d8ffc48	0.07030541
245	0xbdbdc310	-0.09265721
246	0xbe044051	-0.1291516
247	0x3dc20ad9	0.09474725
248	0x3e1d54e5	0.15364416
249	0xbdc64838	-0.096817434
250	0x3dee053f	0.11622094
251	0xbe0172af	-0.12641405
252	0x3e2fd86b	0.171724
253	0xbcb7f887	-0.022457374
254	0x3e0990a3	0.13434081
255	0xbdfb37c6	-0.12266497

l4.bias f4 [13]
0	0xbc2c5ea6	-0.010520613
1	0x3d6007c3	0.054694902
2	0x3daf6203	0.08563616
3	0xbe376420	-0.17909288
4	0x3df4e4b0	0.11957681
5	0x3e2f8e24	0.17144066
6	0xbaabec92	-0.0013116768
7	0xbe068805	-0.13137825
8	0xbd7d97a7	-0.061912205
9	0x3e12d7fa	0.14340201
10	0xbe4635fb	-0.1935653
11	0x3dd4bf66	0.10388069
12	0xbdf42e36	-0.119228765
