gpu_data.pth (torch, 88087 bytes, 8 tensors)

l1.weight f4 [128, 79]
0	0x3ca1c256	0.019745987
1	0xbc28d7d0	-0.01030536
2	0x3e121af1	0.1426809
3	0x3bb61ab4	0.0055573825
4	0x3d220ed9	0.03956494
5	0xbd96daa7	-0.073659234
6	0xbd781fb2	-0.060577102
7	0x3dc927db	0.09822055
8	0x3e479a76	0.19492516
9	0x3dcf9630	0.10136068
10	0x3e0ac703	0.1355248
11	0xbde82e5a	-0.11336966
12	0xbe6935f1	-0.22774483
13	0xbdfd5517	-0.12369745
14	0xbe001524	-0.12508065
15	0x3d854e43	0.06509068
16	0xbde0c376	-0.10974781
17	0x3e0f68dc	0.14004844
18	0x3e02330a	0.12714782
19	0xbc54f8d5	-0.012998779
20	0x3d4c5717	0.049887743
21	0x3c0e8485	0.008698587
22	0x3db8b33c	0.09018561
23	0x3d99569f	0.07487225
24	0x3dd7918d	0.105258085
25	0xbdda3996	-0.10655515
26	0x3e0b2060	0.13586569
27	0x3cd005f8	0.025393471
28	0x3e20fad1	0.15720679
29	0xbdba73a5	-0.09104089
30	0xbd902d69	-0.07039911
31	0x3ddabf44	0.10681012
32	0xbc81d1e7	-0.01584716
33	0xbd25c3ee	-0.040470056
34	0xbc8a68ff	-0.01689577
35	0xbe099896	-0.13437113
36	0x3e27d684	0.16390425
37	0x3d34d676	0.04414984
38	0x3e088df9	0.13335408
39	0x3dae947b	0.08524414
40	0x3d8133b7	0.06308692
41	0x3e4452a7	0.19172154
42	0xbe07e08a	-0.13269249
43	0x3e1067f3	0.14102153
44	0xbd0445f8	-0.03229329
45	0x3b206f1e	0.0024480294
46	0xbd0ba020	-0.034088254
47	0x3d3a4f2f	0.04548567
48	0x3dd7b6b1	0.105328925
49	0xbda9f7ed	-0.08299241
50	0x3d4e76cd	0.050406266
51	0x3d5d2293	0.05398805
52	0xbdf37df8	-0.11889261
53	0x3e865d79	0.2624319
54	0x3abd052e	0.0014421099
55	0x3d5d466e	0.054022245
56	0x3cf0af41	0.029380443
57	0x3e099ede	0.1343951
58	0x3da69946	0.08134703
59	0x3d17ac6a	0.03702966
60	0x3daf086c	0.08546528
61	0x3d1d3ad0	0.038386166
62	0xbe196d98	-0.14983213
63	0xbdcfb950	-0.101427674
64	0xbc90acdd	-0.017660553
65	0xbd7337f4	-0.059379533
66	0x3d05b808	0.03264621
67	0x3dd9503d	0.10611007
68	0xbdd946f0	-0.106092334
69	0xbe94164e	-0.28923267
70	0xbdb0d1e9	-0.08633787
71	0x3e0c286e	0.13687298
72	0x3d56fa11	0.052484576
73	0xbc1017ab	-0.008794705
74	0x3e2d4f5b	0.16924803
75	0xbda38492	-0.0798427
76	0xbdc0602a	-0.09393342
77	0xbc1ff18d	-0.00976218
78	0x3db38fab	0.08767637
79	0x3e0cb313	0.13740186
80	0x3d45aafe	0.048258774
81	0x3c796549	0.015221902
82	0xbd71546c	-0.0589184
83	0xbb62fa88	-0.0034634192
84	0x3e273417	0.16328464
85	0x3e02e5f5	0.12783034
86	0x3d5e64f4	0.054295495
87	0x3e6bda15	0.2303241
88	0x3e1b3eea	0.15160719
89	0xbe52cfd8	-0.20587099
90	0xbd9554ec	-0.07291588
91	0xbe6d7f1c	-0.2319302
92	0xbdd7f671	-0.10545052
93	0xbe1a5ea7	-0.1507517
94	0x3dd0d64e	0.101971254
95	0x3de7ac07	0.113121085
96	0xbe16ff28	-0.14745772
97	0x3dabf677	0.08396619
98	0x3e32e2d1	0.17469336
99	0xbd452a23	-0.048135888
100	0x3e1b2175	0.15149482
101	0x3decfcd1	0.115716584
102	0x3d82cc39	0.06386609
103	0x3d20e7c6	0.039283536
104	0x3e4e8ad5	0.20170148
105	0xbe3f3038	-0.18670738
106	0xbd6e2bac	-0.058147117
107	0xbda2cf7a	-0.07949729
108	0x3e36a0b3	0.1783474
109	0x3e3dfdfb	0.18553917
110	0x3ddccba5	0.107810296
111	0x3e01ac72	0.12663439
112	0x3e19de09	0.15026106
113	0x3e8861b8	0.26637053
114	0xbd841cba	-0.06450792
115	0xbb9bcc71	-0.004754596
116	0x3d9d0958	0.07667798
117	0x3c9c388b	0.01906993
118	0x3dca52c6	0.09879069
119	0xbda5b80a	-0.08091743
120	0xbe00dc1c	-0.12583965
121	0xbd82d9e2	-0.06389214
122	0x3d8761af	0.066104285
123	0xbda8becf	-0.08239519
124	0xbd077804	-0.03307344
125	0xbc871514	-0.016489543
126	0xbdbc5b7b	-0.09197136
127	0xbdd64cbe	-0.10463856
128	0xbd0411d9	-0.032243583
129	0x3e02c869	0.12771763
130	0x3cf84c29	0.030309753
131	0xbdb9c6c0	-0.09071112
132	0xbdf3630d	-0.11884127
133	0x3e3cfae1	0.18455078
134	0xbd771ada	-0.060328342
135	0xbe5100be	-0.2041044
136	0x3cddd0a4	0.027077027
137	0xbe0bb142	-0.13641837
138	0xbe157a19	-0.14597358
139	0xbdc2d4c7	-0.0951324
140	0xbd616919	-0.05503187
141	0x3e9ae5ef	0.3025355
142	0x3e507f33	0.20361023
143	0xbc5840e4	-0.013199065
144	0x3d9aa26e	0.07550512
145	0xbd46e03e	-0.048553698
146	0xbe3daab6	-0.18522152
147	0xbdb73a9c	-0.08946726
148	0x3db0df4f	0.08636343
149	0x3d895a45	0.06706671
150	0x3e253833	0.1613472
151	0x3d9629e3	0.07332208
152	0x3d52cff7	0.051467862
153	0x3d4f6411	0.05063254
154	0xbcf227d3	-0.029560005
155	0x3ddb4ec9	0.107083865
156	0x3dcd3edf	0.10021757
157	0xbd67040d	-0.056400348
158	0x3c19b1b3	0.009380746
159	0xbdb92fbd	-0.090423085
160	0x3c99fbd8	0.018796846
161	0x3e603899	0.2189659
162	0x3d54fa15	0.05199631
163	0xbc884ece	-0.01663914
164	0xbda4e707	-0.080518775
165	0x3e1e5a28	0.1546408
166	0xbdf74ea3	-0.12075546
167	0xbdab3c13	-0.083610676
168	0x3e81c31f	0.25344178
169	0xbe1c3289	-0.15253653
170	0x3d066347	0.032809522
171	0x3e2d49d7	0.16922699
172	0x3d31e5db	0.043432098
173	0xbe4eaa11	-0.20182063
174	0x3e3722f8	0.17884433
175	0xbd671b00	-0.056422234
176	0xbd714915	-0.058907587
177	0x3d2dceea	0.042433657
178	0x3e155e8b	0.14586847
179	0xbd389a7d	-0.045069207
180	0xbd816974	-0.06318942
181	0xbdc4f5c6	-0.0961719
182	0xbdc619ad	-0.09672866
183	0xbda63d78	-0.08117193
184	0x3e54fd82	0.2079983
185	0x3e18dda6	0.14928302
186	0xbc58c422	-0.013230355
187	0xbdd84ec8	-0.10561901
188	0xbe00c610	-0.12575555
189	0xbd474b10	-0.04865557
190	0xbdd47d76	-0.10375492
191	0x3a02090b	0.0004960454
192	0x3e5887ea	0.21145597
193	0xbe4dbd11	-0.20091654
194	0xbe323f61	-0.1740699
195	0xbcbd8389	-0.02313401
196	0xbcc6c4ff	-0.024263857
197	0xbc8ba8c8	-0.017048255
198	0xbd3e119e	-0.04640352
199	0x3b2f5da9	0.0026758707
200	0x3e67044f	0.22560237
201	0x3d989c90	0.07451737
202	0xbd152c48	-0.036419183
203	0x3e046255	0.12928136
204	0x3dfff0ea	0.124971226
205	0xbe13f0cd	-0.14447327
206	0x3dd56173	0.104189776
207	0x3db0c6bd	0.08631656
208	0x3e17abc9	0.14811625
209	0x3e34b819	0.17648353
210	0xbb374ab1	-0.0027968104
211	0xbd8fbfdd	-0.07019017
212	0x3cdb9d5e	0.026808437
213	0xbce73e89	-0.028228061
214	0x3e7343d0	0.23756337
215	0xbce17f84	-0.027526625
216	0xbdc42368	-0.09577066
217	0xbd56f8fb	-0.05248354
218	0xbde1493b	-0.11000296
219	0x3d831117	0.06399744
220	0xbdf6d2fb	-0.1205196
221	0x3cb4c311	0.022065671
222	0xbdcd0edb	-0.10012599
223	0xbcd4b76f	-0.025966374
224	0xbc89b1fd	-0.016808504
225	0xbe2dee1b	-0.16985361
226	0x3e5352d2	0.20637062
227	0x3d42c250	0.047548592
228	0x3d0965ae	0.033544235
229	0x3e1c0d64	0.15239483
230	0x3d83fa21	0.06444193
231	0xbe09c0ee	-0.13452503
232	0x3cc10bff	0.02356529
233	0x3bc524db	0.0060163564
234	0xbd22739f	-0.039661046
235	0x3c8257f3	0.015911078
236	0x3a5aa207	0.0008340184
237	0x3dcccafa	0.09999652
238	0xbe12f1a1	-0.14349987
239	0xbe13b5fa	-0.14424887
240	0x3dff75d9	0.124736495
241	0xbda675df	-0.08127951
242	0xbd09567a	-0.033529736
243	0x3d501ea2	0.050810464
244	0x3d857c90	0.06517899
245	0xbd50f22f	-0.051012214
246	0x3ca1e7bc	0.01976382
247	0xbe388094	-0.18017799
248	0x3d59be2f	0.05315989
249	0xbe22df10	-0.15905404
250	0x3e0bfb40	0.13670063
251	0x3cf792a0	0.030221283
252	0xbe009e7d	-0.12560458
253	0x3df71585	0.120646514
254	0xbd409732	-0.04701919
255	0x3cccf5e1	0.025019588

l1.bias f4 [128]
0	0x3e17b198	0.1481384
1	0x3e53644d	0.2064373
2	0x3dd4013a	0.103517964
3	0x3e3ad130	0.18243861
4	0x3dc63519	0.09678096
5	0x3e21ae88	0.15789235
6	0x3dc2583c	0.094894856
7	0x3d5d2143	0.0539868
8	0x3e2b1eac	0.16710919
9	0x3e3f56d9	0.18685474
10	0x3cd1600c	0.025558494
11	0x3e1877cf	0.14889453
12	0x3cd79c5e	0.026319679
13	0x3da2f536	0.079569265
14	0x3da43bc3	0.08019211
15	0xbd1f772e	-0.038932018
16	0xbd2d08fc	-0.042244896
17	0x3da6973b	0.08134314
18	0xbb7373ed	-0.0037147955
19	0x3d6a7865	0.057243723
20	0x3e5fc626	0.21852931
21	0x3e300fc0	0.17193508
22	0x3e4c473d	0.1994905
23	0x3d839078	0.064240396
24	0x3d9e7e48	0.0773893
25	0x3e39fefa	0.18163672
26	0x3d17151d	0.03688537
27	0x3e92db57	0.28682968
28	0x3e5326aa	0.20620218
29	0x3d68cdf2	0.05683703
30	0x3e7f4da7	0.24931966
31	0x3dc5762a	0.09641679
32	0x3e81600e	0.25268596
33	0x3ea0bb58	0.31392932
34	0x3d8ebe85	0.069699325
35	0xbddcc549	-0.10779817
36	0x3e28c118	0.1647991
37	0x3e3ee665	0.18642576
38	0x3e34e66a	0.17666021
39	0x3e28d16c	0.16486138
40	0x3e24cd45	0.16093929
41	0x3e0ead18	0.13933218
42	0x3d95319c	0.07284853
43	0x3e0f2c51	0.13981749
44	0x3e6afd91	0.2294829
45	0xbdbe6f69	-0.092985936
46	0x3dad5972	0.08464326
47	0xbd0f38df	-0.034966346
48	0xbd06515e	-0.03279244
49	0x3e725098	0.23663557
50	0x3e05f7be	0.13082787
51	0x3e82583f	0.2545795
52	0x3df530b0	0.11972177
53	0x3e92565d	0.28581515
54	0x3e87df6b	0.26537642
55	0x3e85c96b	0.26130232
56	0x3d449d00	0.04800129
57	0x3e72744d	0.23677178
58	0x3e87c52e	0.26517624
59	0xbd38a0af	-0.045075115
60	0x3d9fccb0	0.07802713
61	0xbbc1579e	-0.0059003374
62	0x3dea25d4	0.114329964
63	0x3db21d77	0.08697026
64	0x3da3a86a	0.07991107
65	0x3d1379a8	0.036004692
66	0x3e624bb8	0.22099197
67	0x3e21b538	0.15791786
68	0x3e4cf8e4	0.20016819
69	0x3deaa7f6	0.11457817
70	0x3d1178ec	0.03551571
71	0x3e8842f4	0.2661358
72	0x3e0e307e	0.13885686
73	0x3e5446fb	0.20730202
74	0x3dc847be	0.09779309
75	0x3b5725d8	0.0032828953
76	0x3e47c1bb	0.19507496
77	0x3e8ee16a	0.27906352
78	0x3ddfeb74	0.10933581
79	0x3e2b3064	0.16717678
80	0x3e1d6ba1	0.15373088
81	0x3bbddbf8	0.0057940446
82	0x3c86af6f	0.016441075
83	0x3e75c83f	0.24002169
84	0x3e2a57e6	0.16635093
85	0x3e3ecd85	0.18633087
86	0x3e1a2e7e	0.15056798
87	0x3e856c23	0.26059064
88	0x3dec38b6	0.11534254
89	0x3dbcd9d5	0.09221236
90	0x3dbce435	0.092232145
91	0x3e6933f0	0.22773719
92	0x3db3633a	0.0875916
93	0x3dc40cf6	0.095727846
94	0x3e0718de	0.1319308
95	0x3e7a35b2	0.24434546
96	0xbbdce537	-0.0067411917
97	0x3e8a3849	0.26996067
98	0x3e153a1f	0.14572953
99	0x3e357626	0.17720851
100	0x3db13c27	0.08654051
101	0x3d5a02ec	0.053225443
102	0x3d52cd70	0.05146545
103	0x3e62698e	0.22110578
104	0x3e5bcb3e	0.2146425
105	0x3e2e51b7	0.17023359
106	0x3e157bc3	0.14597993
107	0x3d38dd94	0.04513319
108	0x3e593754	0.21212512
109	0x3e57faca	0.21091762
110	0x3dc8e20a	0.098087385
111	0x3dc1aa78	0.094563425
112	0x3d9e8183	0.07739546
113	0x3e1c07ca	0.15237346
114	0x3e06849f	0.13136528
115	0x3d2e8a33	0.042612266
116	0x3d8b4151	0.067995675
117	0x3e1d52af	0.15363573
118	0x3e8f9064	0.2803985
119	0x3db9a232	0.090641394
120	0x3d9f4b08	0.07777983
121	0x3c9ec32f	0.01938018
122	0x3e062155	0.13098653
123	0x3e6c1ce0	0.2305789
124	0x3e1b86b5	0.15188105
125	0x3d633a2a	0.05547539
126	0xbcac3c7f	-0.02102494
127	0x3d97aa3a	0.07405515

l2.weight f4 [64, 128]
0	0xbd5253ea	-0.051349558
1	0x3b9fd6f1	0.004877918
2	0xbdafb510	-0.08579457
3	0x3dace326	0.084417626
4	0xbd4dba7f	-0.050226685
5	0xbd8a2803	-0.06745913
6	0x3cd761d2	0.026291762
7	0xbc8eb0ce	-0.017418291
8	0xbd8d3433	-0.06894722
9	0x3d0facc4	0.03507687
10	0xbc7059c8	-0.014669843
11	0xbd9ec160	-0.07751727
12	0x3d4035df	0.046926375
13	0x3da059e7	0.078296475
14	0x3db16277	0.08661359
15	0x3cf9f042	0.030510072
16	0xbc74a450	-0.014931753
17	0xbd950307	-0.07275968
18	0xbbcae1ca	-0.006191467
19	0x3d9bb709	0.076032706
20	0xbc5f4d6e	-0.0136293005
21	0xbd041bc5	-0.032253046
22	0xbd9aa61a	-0.075512126
23	0xbd799a1f	-0.060937997
24	0x3ce16e41	0.027518393
25	0x3ba83baa	0.0051340656
26	0x3b5e0c23	0.0033881746
27	0xbd2007a8	-0.0390698
28	0x3c51a699	0.012796068
29	0xbd47f7a3	-0.04882015
30	0x3ab80fd4	0.0014042803
31	0xbd8023f6	-0.06256859
32	0xbcc90050	-0.024536282
33	0xbd3ae1e8	-0.045625597
34	0xbd745b54	-0.05965741
35	0x3bfd4ac0	0.007729858
36	0xbd1b1ae0	-0.037867427
37	0x3d9fca04	0.07802203
38	0x3c26c24a	0.010178158
39	0x3d3972eb	0.04527561
40	0x3c4aa883	0.012369278
41	0xbb9d7f24	-0.004806416
42	0x3d6edea0	0.05831778
43	0x3ca476d1	0.020076187
44	0xbd50389a	-0.05083523
45	0xbc449957	-0.01199945
46	0xbd38ad2b	-0.04508702
47	0xbd321ce5	-0.043484587
48	0x3cab2a80	0.020894289
49	0xbce0371b	-0.027370026
50	0x3d012c80	0.03153658
51	0x3d0e3961	0.03472269
52	0x3cb98aed	0.022649253
53	0x3c95f473	0.018305039
54	0xbc9a8081	-0.018860104
55	0xbd70ec37	-0.058819022
56	0xbd96bdb7	-0.07360404
57	0x3ccf6bda	0.025319982
58	0xbd92eb13	-0.07173743
59	0x3cbc80f7	0.023010714
60	0xbd3c8af7	-0.046030965
61	0x3d47d10b	0.048783343
62	0xbd25ed2a	-0.04050938
63	0xbc81a9b1	-0.015827985
64	0x3d9e2218	0.077213466
65	0xbd9e6cbd	-0.07735584
66	0x3c34608c	0.011009347
67	0x3aad8e59	0.0013241275
68	0x3d486e24	0.048933163
69	0xbd3118f5	-0.04323669
70	0x3c1fec82	0.009760978
71	0xbd8aeaa0	-0.067830324
72	0x3da193e9	0.0788954
73	0x3d4231a6	0.04741063
74	0x3d98e2f1	0.07465161
75	0xbda692e8	-0.08133489
76	0x3d75ed46	0.060040735
77	0x3da25c71	0.07927788
78	0x3cdfc41d	0.027315194
79	0x3c30775f	0.010770648
80	0x3da203db	0.079108916
81	0xbd8436a3	-0.064557336
82	0xbd0cde91	-0.034391943
83	0xbd9f3257	-0.077732734
84	0xbc324364	-0.010880325
85	0x3bff2429	0.007786293
86	0xbd75bc16	-0.059993826
87	0xbda09d55	-0.07842509
88	0x3c865b0b	0.016400835
89	0x3be425df	0.0069625224
90	0xbd080d51	-0.033215825
91	0x3da8efad	0.082488395
92	0x3b21dbed	0.0024697736
93	0x3da9196f	0.08256804
94	0x3d0de386	0.03464081
95	0xbd8be64d	-0.06831036
96	0x3d362266	0.0444664
97	0x3c2ee7d0	0.010675386
98	0xbceeeb1f	-0.029164849
99	0xbb4737e6	-0.0030398308
100	0x3d5920d0	0.053009808
101	0xbd5f1b17	-0.054469194
102	0xbc0405ac	-0.008057993
103	0xbd058508	-0.03259757
104	0xbd4f1242	-0.05055452
105	0xbd74a3cb	-0.059726518
106	0x3b06f400	0.0020592213
107	0x3d99a7e0	0.07502723
108	0xbd011ef1	-0.03152365
109	0x3c98b625	0.01864154
110	0x3c8e8798	0.01739864
111	0xbd3f5bea	-0.046718515
112	0xbb4e7649	-0.003150361
113	0x3dadae81	0.084805496
114	0xbc4cf714	-0.01251008
115	0x3d0d52cc	0.03450279
116	0xbdac4d59	-0.084131904
117	0xbd031ad3	-0.032008003
118	0xbdaf4bfb	-0.08559414
119	0x3c294a38	0.010332637
120	0xbd82f90b	-0.063951574
121	0xbc62caa3	-0.013842258
122	0x3d43add2	0.04777319
123	0x3cad566b	0.021159371
124	0xbdb26131	-0.08709944
125	0x3d1cba47	0.038263585
126	0xbd7b63fa	-0.061374642
127	0xbd608c63	-0.054821383
128	0xbd950b54	-0.07277551
129	0x3db9fee3	0.09081819
130	0xbdc190c2	-0.094514385
131	0xbc3b2d43	-0.011424365
132	0x3dd33867	0.10313492
133	0xbd62d0a1	-0.055374745
134	0x3e6fa6cf	0.23403476
135	0xbe6f0d42	-0.23344901
136	0xbced4dae	-0.028967705
137	0x3e351dd5	0.17687161
138	0xbe1e3e09	-0.15453352
139	0x3e541591	0.20711352
140	0xbdac5445	-0.08414511
141	0x3e4843a7	0.19557057
142	0xbe200f57	-0.15630852
143	0x3dbb53a2	0.09146811
144	0x3e80d716	0.25164098
145	0x3e3a772f	0.18209527
146	0x3e0cf378	0.13764751
147	0xbda42d92	-0.08016504
148	0x3e0a59f2	0.13510874
149	0x3d27bd36	0.04095193
150	0x3c85d613	0.01633743
151	0xbd90ed46	-0.07076506
152	0x3e585875	0.21127494
153	0x3d49f2cc	0.049303815
154	0x3e0e5c00	0.13902283
155	0xbe42bfd1	-0.19018485
156	0xbd5d82f8	-0.05407998
157	0xbd71970e	-0.058981948
158	0x3d559033	0.052139472
159	0x3cb30af4	0.021855809
160	0x3d8c6619	0.06855411
161	0x3e1c650a	0.15272918
162	0x3db4a8ba	0.088212445
163	0xbda00c13	-0.07814803
164	0x3d039fa9	0.032134686
165	0x3d742389	0.0596042
166	0xbd9ec0ee	-0.07751642
167	0x3e57a049	0.21057238
168	0x3d6f1c50	0.05837661
169	0xbe56adba	-0.20964709
170	0x3dfad006	0.122467086
171	0x3d66634a	0.056247033
172	0xbd48603b	-0.048919898
173	0x3c71f660	0.014768213
174	0x3cd9fc15	0.02660946
175	0xbe4330f2	-0.1906164
176	0xbd807bc5	-0.06273607
177	0xbc08dc67	-0.008353329
178	0x3e26c9eb	0.16287963
179	0xbd4aa6c3	-0.049475443
180	0x3b9933af	0.0046753506
181	0x3e0ac9a6	0.13553485
182	0x3daf478a	0.08558567
183	0xbd8d1786	-0.06889252
184	0xbdb406d7	-0.08790367
185	0xbc3af4de	-0.01141092
186	0x3ba50bfe	0.00503683
187	0xbda2caa9	-0.079488106
188	0x3ddf244e	0.108955964
189	0xbd99b675	-0.07505504
190	0x3e01f432	0.1269081
191	0xbe04d5c5	-0.12972172
192	0x3e2789a0	0.16361094
193	0x3dd9e5a2	0.10639502
194	0x3ca86d27	0.02055986
195	0x3db92985	0.09041122
196	0xbd0ff8bb	-0.035149317
197	0xbe765157	-0.24054466
198	0xbe0f1be6	-0.13975486
199	0xbe01a72e	-0.1266143
200	0x3dd32dbf	0.1031146
201	0x3e8058fe	0.25067896
202	0xbd8dff50	-0.069334626
203	0x3dee2c83	0.11629584
204	0xbd9fd53a	-0.078043416
205	0x3cb70300	0.022340298
206	0xbe765118	-0.24054372
207	0xbe1e8f48	-0.15484345
208	0x3d0c3f7a	0.034240223
209	0x3df137b3	0.11778202
210	0x3d913855	0.070908226
211	0x3e7eb307	0.24872981
212	0x3d62111f	0.05519211
213	0xbd166f8c	-0.036727473
214	0x3a47b191	0.0007617707
215	0x3ddc3b89	0.10753543
216	0x3e15b4b7	0.14619718
217	0x3e11cb06	0.14237604
218	0x3e1226a5	0.14272554
219	0x3c5205d8	0.012818776
220	0x3e118aae	0.14213058
221	0xbcd39bea	-0.025831182
222	0xbc43c1cb	-0.011948059
223	0xbe1d70cb	-0.15375058
224	0x3e24fccf	0.16112064
225	0xbd9db68c	-0.07700834
226	0x3da1b194	0.078951985
227	0xbdc4ac87	-0.096032195
228	0x3d9ad3f2	0.075599566
229	0x3d8a0ad2	0.06740345
230	0x3dfee9a6	0.12446909
231	0x3c3c34e0	0.011487216
232	0xbdf197fa	-0.11796565
233	0x3df1a23f	0.11798524
234	0x3dac6521	0.08417726
235	0x3e16058d	0.14650555
236	0xbe87538c	-0.2643093
237	0x3dcacf97	0.09902876
238	0x3dc6499a	0.09682007
239	0xbd2ca7b2	-0.042152114
240	0xbd35a1ab	-0.04434363
241	0x3ddb4165	0.107058324
242	0xbdae76a3	-0.08518722
243	0x3d4adcff	0.049527165
244	0x3e45b742	0.19308189
245	0xbc1e45eb	-0.009660224
246	0xbe028d1b	-0.1274914
247	0x3cccf70a	0.025020141
248	0x3db5812e	0.0886253
249	0x3e521686	0.20516405
250	0xbd8d7ee6	-0.069089696
251	0xbd948866	-0.072525784
252	0x3e944f8b	0.28966936
253	0x3d3a51d7	0.045488205
254	0x3c27aebd	0.010234532
255	0x3c5e748d	0.013577593

l2.bias f4 [64]
0	0xbd983043	-0.0743108
1	0x3c9a8018	0.018859908
2	0x3d7d2f3c	0.061812624
3	0x3e062558	0.13100183
4	0x3d367c74	0.04455228
5	0xbcafa228	-0.021439627
6	0x3c83b4ed	0.016077483
7	0xbb5583d8	-0.0032579806
8	0x3e0c3f35	0.13695987
9	0x3ddfdb34	0.109304816
10	0xbca49910	-0.020092517
11	0x3e0b64cf	0.13612674
12	0x3dac706a	0.08419879
13	0x3e08d631	0.13362958
14	0x3df85435	0.12125436
15	0x3abeeaca	0.0014565822
16	0xbcf56b6c	-0.02995845
17	0x3b8ecc33	0.0043578385
18	0x3e19d313	0.15021925
19	0x3e38b1ca	0.18036571
20	0xbc733b53	-0.014845687
21	0xbc78e1ac	-0.015190523
22	0x3dbabfab	0.09118589
23	0x3d9e8432	0.07740058
24	0x3d00af32	0.03141708
25	0xbd5c0cf4	-0.05372329
26	0x3da5c6cd	0.08094559
27	0x3dffd11f	0.124910586
28	0x3dacdb4b	0.08440264
29	0x3d8a6f0d	0.067594625
30	0x3c1a2d54	0.009410221
31	0x3dcb388f	0.09922897
32	0x3e059e75	0.13048728
33	0x3d5fdfd6	0.054656826
34	0x3dde9b3d	0.10869453
35	0x3cae1dfb	0.02125453
36	0x3d966f2a	0.073454216
37	0x3e22fea8	0.15917456
38	0xbc411383	-0.011784437
39	0x3df37aba	0.118886426
40	0xbcc610de	-0.024177965
41	0x3c8e5e5a	0.017378975
42	0x3d7e308e	0.062058024
43	0x3dd206b4	0.10255185
44	0x3dc94f17	0.09829538
45	0x3da9ea02	0.082965866
46	0x3d44bb85	0.048030395
47	0x3c582a6f	0.013193711
48	0x3cedbcbe	0.029020663
49	0x3db7d00f	0.08975231
50	0x3dacdd1b	0.0844061
51	0x3dc4607c	0.095887154
52	0x3d8962d9	0.06708307
53	0x3dd6235c	0.10455963
54	0xbd83653c	-0.06415793
55	0x3d1aafe3	0.037765395
56	0xbbb31299	-0.0054648635
57	0x3e2b8be1	0.16752578
58	0x3dc58e54	0.096462876
59	0x3cfc9180	0.030831099
60	0xbbef8563	-0.007309602
61	0x3e215a8d	0.15757199
62	0x3d82d36f	0.06387984
63	0x3e237772	0.15963534

l3.weight f4 [32, 64]
0	0x3d9daf22	0.076994196
1	0x3e910cb8	0.28330016
2	0x3dfba481	0.12287236
3	0xbdca8223	-0.09888103
4	0x3e297f80	0.16552544
5	0x3e7bc36c	0.24586266
6	0xbe7328b1	-0.23745991
7	0x3d9b4fd5	0.07583586
8	0xbe95ffc1	-0.29296687
9	0xbdafeb6b	-0.08589824
10	0x3e2a5cf1	0.16637017
11	0xbe76a689	-0.24086966
12	0x3ca59d31	0.020216556
13	0xbdee337b	-0.11630913
14	0x3d6b5b3c	0.057460055
15	0x3e1ea022	0.15490773
16	0x3e572cd1	0.2101319
17	0x3dc0c52b	0.09412607
18	0x3df254d7	0.11832588
19	0x3d42293d	0.04740261
20	0x3e964c11	0.2935491
21	0x3e25df8c	0.16198558
22	0x3e027a8b	0.12742059
23	0xbe6bcd53	-0.23027544
24	0x3e331c4f	0.17491268
25	0xbddb750e	-0.10715686
26	0x3e62d753	0.22152452
27	0x3de7c95d	0.11317704
28	0xbe4331f5	-0.19062026
29	0x3e398835	0.18118365
30	0xbcaaaa29	-0.020833092
31	0xbe27df89	-0.16393866
32	0x3e8bfa12	0.27339226
33	0x3eb1058c	0.34574544
34	0x3cf00d1d	0.029303128
35	0x3e2d236c	0.16908044
36	0x3e346e1d	0.1762013
37	0xbdcd0b02	-0.10011865
38	0x3d7eba98	0.06218967
39	0x3d9dcd38	0.07705158
40	0xbd33c831	-0.04389209
41	0x3e5761b2	0.21033362
42	0xbc1eefd5	-0.009700735
43	0x3e88d402	0.2672425
44	0xbe116c22	-0.14201406
45	0x3e65eea3	0.22454314
46	0x3da799bb	0.08183619
47	0x3e0b8ef6	0.13628754
48	0xbc4a7226	-0.012356317
49	0xbdffe396	-0.124945804
50	0xbe2af6c3	-0.16695695
51	0x3e39ad6d	0.18132563
52	0xbe1b6d8f	-0.15178512
53	0x3d9b6824	0.075882226
54	0x3d928ce4	0.07155779
55	0x3e7ff4dd	0.24995752
56	0x3e6b937a	0.23005477
57	0xbe43c537	-0.191182
58	0xbd9e00d3	-0.07715001
59	0x3e8a79ce	0.27046055
60	0x3e2056fb	0.1565818
61	0x3bf7cb13	0.00756205
62	0x3db5dc55	0.088799156
63	0x3e5f4cf7	0.21806704
64	0xbd0f893c	-0.035042986
65	0xbe71e663	-0.23623042
66	0xbc883880	-0.016628504
67	0x3e960a3a	0.29304677
68	0xbd00ec7f	-0.03147554
69	0xbd8a246d	-0.06745229
70	0x3da57652	0.080792084
71	0x3e557ea2	0.20849088
72	0x3e996a2f	0.29963824
73	0x3ea1a606	0.31571978
74	0xbe66bd02	-0.22533038
75	0x3e77b298	0.24189222
76	0xbd93d4ad	-0.07218299
77	0x3d3eb8b7	0.046562877
78	0x3e51c839	0.20486535
79	0xbd21ed3c	-0.039532885
80	0xbe19de7b	-0.15026276
81	0xbe199819	-0.14999427
82	0x3d6e8559	0.05823264
83	0xbc88efb0	-0.016715854
84	0xbc304b97	-0.0107602095
85	0x3db54a60	0.088520765
86	0xbd2c84d1	-0.04211885
87	0x3e5b7798	0.2143234
88	0x3d789014	0.06068428
89	0x3af47280	0.0018649846
90	0xbe567a47	-0.20945083
91	0x3e4893bf	0.1958761
92	0x3e4e1a7e	0.20127293
93	0x3e185c32	0.1487892
94	0xbbd2837d	-0.006424366
95	0xbc04f20a	-0.008114347
96	0x3dce1603	0.10062792
97	0xbe526d6a	-0.2054955
98	0x3dd90b1c	0.10597822
99	0xbe58e6bc	-0.21181768
100	0x3d18adc6	0.0372751
101	0x3e3fde8a	0.18737236
102	0x3e30030c	0.17188662
103	0x3d0f2b4f	0.03495341
104	0xbccf48d0	-0.025303274
105	0x3cdea67b	0.027178993
106	0x3e4f859f	0.20265816
107	0xbe003257	-0.12519203
108	0x3ea812ef	0.32826945
109	0x3e1a862a	0.15090242
110	0x3d43d263	0.047808062
111	0xbd5d22c1	-0.053988222
112	0x3b80fc22	0.0039363066
113	0x3db6883d	0.08912704
114	0x3dc91b7b	0.098196946
115	0xbe685c34	-0.22691423
116	0x3e639a52	0.22226837
117	0x3e2c05a1	0.16799022
118	0xbcc5ca10	-0.024144202
119	0xbc773aab	-0.015089671
120	0xbd8de95f	-0.06929278
121	0x3e476bc9	0.1947471
122	0x3e470aa7	0.19437657
123	0xbd03aea2	-0.032148965
124	0xbe0be6aa	-0.1366221
125	0xbda68a5a	-0.08131857
126	0x3e08c92e	0.13357994
127	0xbe0f21d2	-0.13977745
128	0xbbdfdaa0	-0.006831482
129	0x3da390dd	0.07986615
130	0xbe042148	-0.12903321
131	0x3c75e675	0.0150085585
132	0x3e6eeb9a	0.23332062
133	0x3d76cf97	0.060256567
134	0xbe0a1165	-0.13483198
135	0x3e8137d1	0.25237897
136	0x3abd33ff	0.0014435052
137	0x3db8f175	0.09030429
138	0xbe004aa9	-0.1252848
139	0xbea4226b	-0.3205751
140	0xbe26a4fb	-0.16273873
141	0x3b7ee8ed	0.0038896159
142	0x3bb35503	0.0054727807
143	0x3dfb30aa	0.12265141
144	0xbe055f26	-0.13024577
145	0xbd000499	-0.031254385
146	0x3e03bd28	0.12865126
147	0x3dc7650a	0.097360685
148	0x3e03a5b5	0.12856181
149	0xbc95995d	-0.018261606
150	0xbd138437	-0.03601476
151	0x3e5e1e60	0.21691275
152	0x3d49b3ab	0.04924361
153	0x3dd0f912	0.102037564
154	0x3cd67383	0.026178127
155	0x3e5de1c6	0.21668157
156	0xbe544cc2	-0.20732406
157	0xbd6beef0	-0.057600915
158	0xbdf4010c	-0.11914262
159	0xbd04f434	-0.032459453
160	0x3da829ee	0.082111225
161	0x3d4b6fde	0.04966723
162	0x3d338cd2	0.04383547
163	0xbe40c406	-0.18824777
164	0xbdfc3130	-0.12314069
165	0x3dd66d1f	0.10470032
166	0xbdf78188	-0.12085253
167	0xbe4ba354	-0.19886523
168	0xbe816e08	-0.2527926
169	0x3c236d91	0.009974853
170	0xbd996fb3	-0.07492008
171	0xbc259bf4	-0.010107983
172	0xbd003995	-0.031304915
173	0xbc96e656	-0.01842038
174	0x3e213943	0.157445
175	0xbde788f8	-0.113054216
176	0x3dbb6730	0.09150541
177	0x3dfdd683	0.123944305
178	0x3e1d0d88	0.15337193
179	0x3e37633b	0.17908947
180	0xbda9d100	-0.08291817
181	0x3e604763	0.21902232
182	0xbdd5bb2c	-0.10436091
183	0x3df4e4a9	0.11957676
184	0xbd8c13da	-0.06839724
185	0x3cc16760	0.023608863
186	0x3e1053b8	0.14094436
187	0x3ced0273	0.028931832
188	0xbdc9f47f	-0.09861087
189	0x3d6fd659	0.058554027
190	0xbda58f37	-0.08083957
191	0x3e4ad89c	0.19809192
192	0xbd903b7c	-0.07042596
193	0xbd750634	-0.05982037
194	0xbcacc908	-0.021091953
195	0xbd2a56a9	-0.04158655
196	0xbb97cdf3	-0.0046327054
197	0x3d73ca11	0.059518877
198	0x3e6b2710	0.2296412
199	0xbe861749	-0.2618964
200	0xbe2b4a72	-0.16727617
201	0x3db89c05	0.09014133
202	0x3dcccfdd	0.10000584
203	0x3d75ddea	0.060026087
204	0x3e23f863	0.16012721
205	0x3d822ed2	0.063565865
206	0xbe17bdbb	-0.1481847
207	0xbc37ae3e	-0.011210976
208	0xbc75bdba	-0.014998848
209	0x3e187c36	0.14891133
210	0x3e25816c	0.16162652
211	0x3d1c006a	0.038086332
212	0xbdb973e3	-0.09055307
213	0xbdb37591	-0.087626584
214	0x3e0445ca	0.12917247
215	0x3ac64483	0.0015126619
216	0x3e3e6bb1	0.18595769
217	0xbc6d5dd0	-0.014487699
218	0x3dcee0c4	0.101014644
219	0xbe433751	-0.1906407
220	0x3e56878d	0.20950146
221	0xbde02362	-0.10944249
222	0xbd829b49	-0.063772745
223	0x3de37391	0.11106027
224	0xbde67ed7	-0.112546615
225	0x3da64681	0.08118916
226	0x3d55f367	0.05223408
227	0x3d71b866	0.059013747
228	0xbd921f14	-0.07134834
229	0xbe0ce75a	-0.13760129
230	0x3bacac63	0.0052695735
231	0x3e92742e	0.28604263
232	0x3c148bd2	0.009066539
233	0xbddded2f	-0.10836255
234	0x3d9849b1	0.074359305
235	0xbdc968fc	-0.09834477
236	0xbe2cb498	-0.16865766
237	0x3c9e7758	0.019344017
238	0xbb891378	-0.004183229
239	0x3e3ffd5f	0.18748997
240	0x3dfd0686	0.1235476
241	0xbd577efc	-0.052611336
242	0x3e546ac5	0.20743854
243	0x3e170634	0.1474846
244	0xbe781b77	-0.24229227
245	0x3d0a943b	0.03383277
246	0xbd328778	-0.043586224
247	0x3bd6c4b0	0.0065542087
248	0x3ddbb009	0.107269354
249	0x3dd775d3	0.1052052
250	0xbb2edbc0	-0.0026681274
251	0x3e144a0b	0.1448137
252	0x3e6cc82e	0.23123237
253	0x3db10d7f	0.08645152
254	0x3d9f488f	0.07777511
255	0x3dbb4160	0.09143329

l3.bias f4 [32]
0	0x3d0dafdd	0.034591544
1	0x3d9e0a4e	0.07716809
2	0xbd913ea7	-0.07092028
3	0x3d3747f9	0.044746373
4	0x3cc5d508	0.024149433
5	0x3c088b03	0.008333924
6	0x3c69435c	0.014237251
7	0x3dd346c5	0.103162326
8	0xbda0c9c7	-0.07850986
9	0x3df61b9b	0.12016984
10	0x3dee234d	0.11627827
11	0xbdac24a9	-0.0840543
12	0x3e1da31c	0.15394253
13	0x3da627e7	0.081130795
14	0xbc232de4	-0.009959672
15	0x3c46258c	0.012093913
16	0x3dedb073	0.11605921
17	0x3dd5d748	0.10441452
18	0x3d93b38d	0.07211981
19	0xbdc70771	-0.09718216
20	0x3dc501a1	0.09619451
21	0xbd569f2e	-0.0523979
22	0x3c1967b0	0.0093631
23	0xbd247811	-0.040153567
24	0xbdda9205	-0.10672382
25	0xbd37ba03	-0.04485513
26	0x3d791bb0	0.06081742
27	0x3d04f6ae	0.032461815
28	0x3de94eb2	0.11391963
29	0x3c669cdb	0.014075483
30	0xbd289574	-0.041158155
31	0x3d8fab62	0.070151106

l4.weight f4 [13, 32]
0	0x3e436ed5	0.19085248
1	0xbe93399c	-0.2875489
2	0x3e217d4b	0.15770452
3	0xbeacfe8f	-0.33787963
4	0x3cf01a3a	0.02930938
5	0x3e21d815	0.15805085
6	0xbebd329a	-0.36952668
7	0x3cb25da9	0.021773176
8	0x3e7b0172	0.2451227
9	0xbe43775e	-0.19088504
10	0xbe99eb96	-0.3006255
11	0xbdfe307e	-0.12411593
12	0x3d6b9001	0.05751038
13	0xbe8d6192	-0.27613503
14	0xbe82b0cc	-0.2552551
15	0xbec87fc1	-0.39159968
16	0xbe8fa78d	-0.2805752
17	0xbe8bcbcc	-0.27303922
18	0xbe21262e	-0.1573722
19	0x3d7de03c	0.061981425
20	0xbebe64e6	-0.37186354
21	0xbe0c36be	-0.13692757
22	0xbe2abc93	-0.16673498
23	0x3e53d71e	0.2068753
24	0x3e07a54e	0.13246652
25	0xbddf80ef	-0.10913264
26	0x3e0415c7	0.12898932
27	0xbe140f20	-0.14458895
28	0x3e261937	0.16220556
29	0x3e83dc3a	0.25753957
30	0x3e0a7b9f	0.1352372
31	0xbe896a9e	-0.26839155
32	0x3dc12487	0.09430795
33	0x3db431be	0.0879855
34	0xbec0eb24	-0.37679398
35	0xbdb15fb3	-0.08660831
36	0xbd8e34e8	-0.06943685
37	0x3db131c9	0.08652074
38	0xbe119aba	-0.1421918
39	0x3e0a856a	0.13527456
40	0x3d1cfcb3	0.03832693
41	0xbe6b74d7	-0.2299379
42	0xbda3e333	-0.08002319
43	0x3dd0b8d3	0.101915024
44	0xbe5eb36d	-0.21748133
45	0xbedefcfb	-0.43552384
46	0xbd8073dd	-0.06272099
47	0x3d9db74e	0.07700978
48	0x3e1247ee	0.14285251
49	0xbee70859	-0.45123556
50	0x3c8c4123	0.017120903
51	0xbe0f5ad9	-0.139995
52	0xbd727c91	-0.059200827
53	0xbe0c970e	-0.13729498
54	0x3d3a83ce	0.045535855
55	0x3dbd5b66	0.092459485
56	0x3dc3c1e3	0.09558465
57	0xbe22be09	-0.15892805
58	0x3e1e8de1	0.1548381
59	0x3cece942	0.02891982
60	0x3dbdebf0	0.09273517
61	0xbe7bf6e1	-0.24605896
62	0x3e06ed8b	0.13176553
63	0xbdfa21d5	-0.12213484
64	0x3e10f295	0.14155038
65	0xbdd5a767	-0.1043232
66	0x3dee0c8c	0.11623487
67	0xbecc2112	-0.3986898
68	0xbddfb165	-0.10922507
69	0xbea6f068	-0.3260529
70	0xbcb58cc0	-0.022161841
71	0x3e5294f3	0.20564632
72	0xbc7b2002	-0.0153274555
73	0xbed54ec0	-0.41661644
74	0x3e1a9cb8	0.15098846
75	0x3d31ae40	0.04337907
76	0xbe9e632d	-0.3093504
77	0xbec9d95c	-0.39423645
78	0x3e58e049	0.21179308
79	0x3e099bdb	0.1343836
80	0xbe92acf3	-0.28647575
81	0x3e212a57	0.15738808
82	0x3e4d9a9e	0.20078513
83	0xbddd28a5	-0.10798768
84	0xbeb97b12	-0.36226708
85	0x3e17b23b	0.14814083
86	0xbe22ec53	-0.15910463
87	0xbe869aea	-0.26290065
88	0xbda57345	-0.080786265
89	0xbe64f6b0	-0.22359729
90	0xbe9c4b43	-0.3052617
91	0xbdcaf6a2	-0.09910323
92	0x3e407736	0.18795475
93	0x3cdf7be0	0.027280748
94	0x3df111b7	0.11770957
95	0x3e1b7765	0.15182264
96	0x3e3c9713	0.18417005
97	0xbeb855c6	-0.3600294
98	0xbec0e3d5	-0.37673822
99	0x3e44e6f4	0.19228727
100	0x3d16aa17	0.036783304
101	0xbb228f1b	-0.0024804536
102	0xbedb83d7	-0.42874023
103	0x3e084927	0.13309155
104	0xbe5773a0	-0.21040201
105	0xbeb6ee0e	-0.35728496
106	0x3dd5dc6d	0.104424335
107	0xbce160ef	-0.027512042
108	0x3d8cec32	0.06880988
109	0xbd4dcb09	-0.050242458
110	0xbe5dd13a	-0.21661845
111	0xbdc12c0a	-0.09432228
112	0x3dd09edd	0.10186551
113	0xbe55525a	-0.20832196
114	0x3dd2e093	0.102967404
115	0xbd867021	-0.06564356
116	0x3da91df4	0.08257666
117	0xbe32eae5	-0.17472418
118	0xbe072ba9	-0.13200249
119	0x3d05dba1	0.032680158
120	0x3d9192b7	0.07108062
121	0xbe617903	-0.22018819
122	0xbe1bc249	-0.15210833
123	0xbed69faa	-0.4191869
124	0x3b5327e0	0.0032219812
125	0x3dcc8eb2	0.099881545
126	0xbdad468e	-0.08460723
127	0x3de0afb9	0.109710164
128	0xbdd24139	-0.102663465
129	0x3c76f92b	0.015074055
130	0x3c3b2008	0.011421211
131	0x3d2d6a6f	0.04233783
132	0xbdcda3cd	-0.10041008
133	0xbee052ad	-0.43813077
134	0x3e4f79fb	0.20261376
135	0xbe2321b7	-0.1593083
136	0xbee7efee	-0.4530024
137	0xbdc5b1d0	-0.09653056
138	0x3e2117f9	0.15731801
139	0x3dd534ab	0.10410436
140	0xbda5b1df	-0.08090567
141	0x3e298ece	0.16558382
142	0x3e2edc91	0.17076327
143	0x3e8af753	0.27141818
144	0xbca583a5	-0.020204375
145	0x3e382fc4	0.17986971
146	0x3e4b0821	0.1982732
147	0x3dcf36bc	0.10117862
148	0xbd1634e4	-0.036671534
149	0xba0aa217	-0.00052884355
150	0xbdbbfe46	-0.09179358
151	0xbeb57db7	-0.35447475
152	0xbc3186fb	-0.0108354045
153	0x3ded7fbc	0.11596629
154	0xbebe1240	-0.371233
155	0xbdefa06d	-0.11700521
156	0xbdb9ab7a	-0.0906591
157	0xbe10f33a	-0.14155284
158	0xbbcbb5a8	-0.0062167235
159	0x3dfa89d9	0.122333236
160	0xbeda7225	-0.4266521
161	0x3e85ec9e	0.26157087
162	0x3e690fbd	0.2275991
163	0xbd58b6a5	-0.05290856
164	0x3e301ec6	0.17199239
165	0xbe997555	-0.2997233
166	0x3e33fc91	0.17576815
167	0xbed9d344	-0.42543995
168	0xbe32d225	-0.17462976
169	0x3e1f0c8d	0.15532131
170	0x3d9471a1	0.072482355
171	0x3c1588d1	0.009126858
172	0x3e3242d7	0.1740831
173	0xbc0bf835	-0.008543064
174	0x3ddb9dce	0.10723458
175	0xbea04080	-0.3129921
176	0xbcc9faf5	-0.024655798
177	0x3e819468	0.25308537
178	0xbd95af5f	-0.0730884
179	0x3d62fc7b	0.055416565
180	0xbd679b0b	-0.056544345
181	0xbcd7b397	-0.026330752
182	0xbbbbed3f	-0.005735069
183	0xbea1f65f	-0.3163328
184	0x3e018c60	0.12651205
185	0xbeb92c46	-0.3616659
186	0xbea5be96	-0.32371968
187	0x3d4a2593	0.04935224
188	0x3e38d569	0.1805016
189	0x3c76c5fe	0.015061853
190	0xbe077eae	-0.13231918
191	0xbc8d0f99	-0.017219352
192	0xbb4492dc	-0.0029994762
193	0xbd771657	-0.06032404
194	0xbe0e36b7	-0.1388806
195	0xbe044b89	-0.1291944
196	0x3e32aca0	0.17448664
197	0x3e1f8395	0.15577538
198	0x3d89075a	0.06690855
199	0xbc7d2407	-0.015450484
200	0x3c9bccf2	0.019018624
201	0x3d529949	0.051415715
202	0xbf0384ba	-0.513744
203	0xbdcc7669	-0.099835224
204	0xbd422aca	-0.047404088
205	0x3dfbbd18	0.12291926
206	0xbed0d064	-0.4078399
207	0xbe2d3588	-0.16914952
208	0x3e38d4d3	0.18049936
209	0xbc637700	-0.013883352
210	0xbee097c1	-0.4386578
211	0xbdcf2a60	-0.10115504
212	0x3c8a8117	0.016907258
213	0xbc231b74	-0.009955276
214	0x3cbe6462	0.023241226
215	0x3e3e0bfe	0.18559262
216	0x3e196e23	0.1498342
217	0xbccadafc	-0.024762623
218	0x3e5611cc	0.20905226
219	0xbd9f4f1c	-0.07778761
220	0x3b6f0f1e	0.0036477516
221	0xbea2c291	-0.31789067
222	0xbde61516	-0.112344906
223	0xbefcd648	-0.49382234
224	0x3d87305e	0.06601022
225	0xbed52d73	-0.41636238
226	0xbec193c0	-0.37808037
227	0x3c38cd71	0.01127945
228	0x3d8cc49d	0.068734385
229	0x3d6ff51d	0.058583368
230	0xbdac6fa1	-0.08419729
231	0xbe2e0de0	-0.1699748
232	0x3d8f4003	0.06994631
233	0xbe11e93b	-0.14249127
234	0xbe88d5a3	-0.26725492
235	0xbe1a6bbb	-0.15080158
236	0x3e786afc	0.24259561
237	0x3e6066f3	0.21914272
238	0xbeb95ff7	-0.36206028
239	0xbe316611	-0.17324091
240	0x3c8a28b0	0.016865104
241	0x3d2185ad	0.039434124
242	0xbeb2ba20	-0.34907627
243	0xbd7198b1	-0.05898351
244	0x3dcb7c7d	0.09935854
245	0x3e23afd1	0.15985037
246	0x3e25232c	0.16126698
247	0x3e4dce7d	0.200983
248	0x3d3b073e	0.045661204
249	0xbe3ca2c7	-0.1842147
250	0x3d14bf57	0.03631529
251	0xbec4b95b	-0.38422665
252	0xbe55bec1	-0.20873548
253	0x3dee708d	0.11642561
254	0xbdc8a806	-0.09797673
255	0xbe330c3f	-0.1748514

l4.bias f4 [13]
0	0x3e1c7b72	0.15281466
1	0x3caad5e0	0.020853937
2	0xbe2c780c	-0.16842669
3	0xbc1db366	-0.009625291
4	0x3dc7cc09	0.097557135
5	0x3b912be1	0.0044302796
6	0xbd8f5f23	-0.07000568
7	0xbc5f492f	-0.013628288
8	0xbcdbd5ca	-0.026835341
9	0xbe2e0837	-0.16995321
10	0x3dc0252e	0.093820915
11	0x3e53dc19	0.2068943
12	0xbdac8757	-0.084242515
